tests/models/lstm_model_v1.pth (torch, 725924 bytes, 17 tensors)

lstm1.weight_ih_l0 f4 [200, 1]
0.0074369223 0.034262016 0.024895512 0.019368382 0.1370518 0.038120117 0.07846205 0.11263451
-0.14315933 -0.04650573 -0.03244111 0.01442389 0.045081314 0.07096196 -0.12187225 0.01852192
0.001005371 -0.03901466 -0.12863974 0.016926061 0.12640306 -0.017886262 0.13972183 0.124326184
0.10862538 -0.039630275 -0.08677034 -0.06627157 -0.017802453 0.03625602 0.032097038 -0.07435509
-0.028329734 0.12173024 -0.14132868 -0.060466446 -0.14554088 0.13229674 -0.038315684 0.077910915
-0.04123479 -0.07013633 0.06438306 0.12969254 -0.1504915 0.005065348 -0.08785238 -0.035846893
-0.0626221 -0.058552783 0.1134151 -0.11339698 -0.0006124966 -0.035051018 0.058951363 0.018319264
-0.0341662 -0.0029289185 -0.13491406 -0.07540055 0.016193043 -0.1261268 -0.1307351 -0.0375656
-0.063752614 0.015429743 -0.003995654 0.037838493 -0.021231737 -0.08208072 -0.08213752 0.019301597
0.12732045 -0.06399398 -0.013522691 -0.08585269 0.11802867 -0.0016049858 -0.14749433 0.07616006
-0.118048534 0.023596944 0.031223075 -0.061373968 0.08822901 -0.09412189 -0.04184921 -0.00770411
0.12790662 0.078388475 -0.044392414 0.12023573 0.13154982 -0.11219286 -0.0009884292 0.078752436
-0.051300716 0.09086586 -0.046982113 -0.03385819 -0.10167087 -0.017265368 0.050677773 0.1313855
0.02911546 -0.003627048 0.02378541 -0.03579683 -0.008313097 -0.046521742 0.111925215 -0.108586684
0.023709228 0.07742726 0.07042816 -0.040487263 -0.13422844 0.12384914 0.083572455 0.12981066
0.00787139 0.008946663 0.08853168 0.045633174 0.105930656 0.041177426 -0.022976495 0.09163419
0.09491539 -0.11177183 -0.09141592 -0.046783023 0.06632572 0.002907795 -0.12483226 0.03722049
-0.109578185 -0.061425712 0.0487141 0.10460145 -0.06570893 -0.09726844 -0.02877332 -0.13622844
0.02407108 0.12104593 0.047252398 0.040574666 0.10998797 -0.116351195 -0.11420098 -0.08434944
0.015478597 0.033236343 0.07091329 -0.03639224 0.08930619 -0.00046764023 -0.116714664 -0.12066127
0.109094396 0.022167075 -0.04521015 -0.024867566 -0.050211262 0.07469201 0.024697952 -0.03333207
-0.01388985 -0.13514191 -0.07638005 0.12791903 -0.106660485 -0.018619316 -0.080296665 -0.117994964
-0.036935322 0.083018936 -0.035296932 0.08992092 -0.029279567 -0.118692406 -0.13113831 -0.039204977
0.09205279 0.0876219 0.014987133 -0.11200826 -0.04616325 -0.13797936 0.085541986 -0.12801719
0.068295375 -0.08090258 0.08036014 -0.0043817065 0.09978743 -0.062082674 0.021247167 0.10244956
00000000: 6db1 f33b 5456 0c3d acf1 cb3c 71aa 9e3c
00000010: 4f57 0c3e d723 1c3d b6b0 a03d ecac e63d
00000020: 5c98 12be cb7c 3ebd f8e0 04bd 2e52 6c3c
00000030: 2fa7 383d 8154 913d 2998 f9bd 48bb 973c
00000040: a7c6 833a d6cd 1fbd 23ba 03be 86a8 8a3c
00000050: ce6f 013e 3686 92bc 3d13 0f3e ba9e fe3d
00000060: fc76 de3d 5b53 22bd a6b4 b1bd 64b9 87bd
00000070: 73d6 91bc 3181 143d 2f78 033d 7b47 98bd
00000080: c213 e8bc b44d f93d 77b8 10be aaab 77bd
00000090: ab08 15be cc78 073e e8f0 1cbd c28f 9f3d
000000a0: d0e5 28bd a3a3 8fbd 44db 833d 1fce 043e
000000b0: 721a 1abe 38fb a53b f3eb b3bd 31d4 12bd
000000c0: 0440 80bd 0bd5 6fbd 2d46 e83d ad3c e8bd
000000d0: f38f 20ba a891 0fbd fc76 713d 4812 963c
000000e0: dbf1 0bbd 19f3 3fbb e926 0abe 9b6b 9abd
000000f0: 46a7 843c 6227 01be 6cdf 05be 63de 19bd
00000100: bb90 82bd 08cd 7c3c faed 82bb 89fc 1a3d
00000110: 2eee adbc f019 a8bd b737 a8bd 621e 9e3c
00000120: 4b60 023e 470f 83bd 478e 5dbc 89d3 afbd
00000130: 04b9 f13d 635e d2ba c108 17be cef9 9b3d
00000140: 6ec3 f1bd 614e c13c 89c7 ff3c 4563 7bbd
00000150: 69b1 b43d fac2 c0bd 146a 2bbd c272 fcbb
00000160: f4f9 023e 238a a03d d2d4 35bd 273e f63d
00000170: ffb4 063e 5fc5 e5bd 2e8e 81ba f548 a13d
00000180: b320 52bd e117 ba3d 5170 40bd e3ae 0abd
00000190: d138 d0bd 1a70 8dbc 7f93 4f3d ec89 063e
000001a0: 8c83 ee3c c5b3 6dbb 9fd9 c23c b29f 12bd
000001b0: a833 08bc 958d 3ebd 0c39 e53d b262 debd
000001c0: db39 c23c 2f92 9e3d a43c 903d f9d5 25bd
000001d0: 2e73 09be 9ea4 fd3d 0928 ab3d 16ed 043e
000001e0: 01f7 003c 0695 123c 1950 b53d dae9 3a3d
000001f0: 2cf2 d83d a9a9 283d 3439 bcbc b5aa bb3d
00000200: 0063 c23d a1e8 e4bd 4538 bbbd 8e9f 3fbd
00000210: c7d5 873d b490 3e3b 0ea8 ffbd 8374 183d
00000220: 876a e0bd 8799 7bbd 7088 473d 4939 d63d
00000230: 6792 86bd ad34 c7bd 07b6 ebbc 787f 0bbe
00000240: b730 c53c eee6 f73d bb8b 413d 9f31 263d
00000250: 5f41 e13d 8949 eebd 34e2 e9bd 66bf acbd
00000260: f199 7d3c d522 083d fd3a 913d 0810 15bd
00000270: 2ae6 b63d 9c2d f5b9 1908 efbd 421d f7bd
00000280: e26c df3d ba97 b53c 472e 39bd 11b7 cbbc
00000290: 53aa 4dbd 20f8 983d 5c53 ca3c 3587 08bd
000002a0: 4192 63bc a462 0abe 256d 9cbd 35fd 023e
000002b0: d070 dabd 8987 98bc 9472 a4bd 58a7 f1bd
000002c0: 7e49 17bd d505 aa3d 8493 10bd 7628 b83d
000002d0: b4db efbc 0115 f3bd 1f49 06be 6695 20bd
000002e0: 2c86 bc3d 1c73 b33d 988c 753c 9664 e5bd
000002f0: ad15 3dbd 764a 0dbe a330 af3d f016 03be
00000300: 72de 8b3d 40b0 a5bd db93 a43d 6b94 8fbb
00000310: 5a5d cc3d 674a 7ebd 8a0e ae3c 13d1 d13d

lstm1.weight_hh_l0 f4 [200, 50]
0.010503378 -0.051182237 0.019584402 0.048213374 -0.08805542 -0.05008331 0.039324112 -0.05674806
-0.097185306 0.11742693 -0.073824905 -0.0047241645 -0.13299176 -0.08519816 -0.129536 -0.06811204
0.120764665 -0.038512748 0.04407884 0.10466829 0.022156058 0.123328194 -0.11839017 0.04024226
-0.1324585 -0.13040805 0.025650179 -0.07687846 -0.11042551 -0.088045776 0.123286985 0.097354226
0.10538232 -0.019068383 -0.07805714 0.13605085 0.016791949 -0.11103486 -0.053465363 -0.14150302
0.037017267 -0.06661936 -0.051478878 0.13781416 -0.09627166 0.12256586 -0.13975316 0.10475565
-0.097422495 0.113923505 -0.019118972 -0.018920569 -0.10752708 -0.008877582 0.08163791 -0.103963934
-0.05060989 0.04461799 0.06972622 0.079055145 0.13132808 0.10141601 -0.036302615 0.030028788
0.03197804 0.0695986 0.07612985 0.1419773 0.028882027 -0.0943539 -0.06357892 0.06626433
0.08813915 -0.12742408 -0.13251302 -0.046979062 -0.12109401 0.0070228353 0.037576947 0.12860602
0.09851228 -0.03389135 0.09074755 0.11298897 0.026369525 -0.08284031 -0.1273014 0.004642047
0.12547596 0.122595824 -0.022032237 0.020102134 0.021690592 0.038950976 -0.029342365 -0.113378555
-0.03211296 -0.046021193 0.08822163 0.093294695 -0.0501272 0.0170937 0.08570671 0.091861494
-0.083370075 0.018568477 0.09494236 -0.096774444 -0.13009177 0.053700764 0.019494327 0.026772344
-0.104024686 0.0031240843 0.13549866 0.031875428 -0.12419809 0.14831173 -0.004410481 0.06707002
0.025078053 0.052178267 0.1017487 0.010459131 0.07714562 -0.0016161486 -0.10074375 0.015167746
-0.07655665 -0.034384623 -0.015310099 -0.1041723 -0.079044074 0.079224266 0.054148283 0.1002071
-0.12790155 -0.107870884 -0.11642199 0.05095174 0.024716921 -0.0065633985 0.08405562 -0.10850396
0.01608136 -0.11431916 -0.051974274 -0.050942652 -0.05109681 0.059110355 -0.13265276 0.024519937
0.13105337 0.086428486 -0.12698327 0.037738595 -0.06327692 0.08339037 -0.029585285 -0.017211009
-0.11156698 0.114300475 0.12352416 -0.013789001 -0.1380344 0.10061728 -0.13021049 -0.03246931
-0.058989894 0.007841221 0.091467336 -0.127548 0.023847211 -0.0045502745 0.025579732 -0.11201713
-0.09744277 0.05590564 -0.111809015 -0.0021957557 -0.1458555 0.057369728 0.12691298 -0.14726801
-0.03577335 -0.060135674 -0.058526378 -0.11649097 -0.07220722 -0.053904068 0.024940826 -0.07319522
0.09710366 -0.06267844 -0.03329218 -0.026611995 0.03357868 0.079565905 -0.037086822 -0.033833567
-0.12708962 -0.1265107 0.07706305 -0.007586829 0.048590038 0.053222485 -0.07536075 -0.042981602
0.09879972 0.05414225 -0.07613853 -0.013566183 -0.04175101 0.12054815 -0.018070525 -0.07621051
0.08181534 0.014006652 -0.096432045 0.12775928 0.0841364 -0.10333599 0.041350707 -0.126663
0.058163278 -0.11300155 -0.07550047 -0.064575806 -0.104850754 0.023545498 -0.08115151 0.006927353
-0.052979883 0.1111518 0.047141857 -0.090573736 -0.071014896 -0.1049154 -0.06683165 0.07192841
-0.13455015 0.061513063 0.024157844 -0.07751914 0.058773637 0.067080736 -0.14063768 0.07632546
0.13148241 -0.042916045 0.0034514226 -0.10241972 -0.014502991 0.0825038 0.11793546 -0.050569203
00000000: 5c16 2c3c 77a4 51bd 786f a03c 637b 453d
00000010: 6656 b4bd 2824 4dbd 5212 213d a770 68bd
00000020: 1709 c7bd 887d f03d 8331 97bd 2acd 9abb
00000030: fe2e 08be 5f7c aebd 16a5 04be 537e 8bbd
00000040: 7753 f73d 8bbf 1dbd 048c 343d 545c d63d
00000050: 9f80 b53c 7e93 fc3d 8c76 f2bd 11d5 243d
00000060: 33a3 07be b089 05be 5320 d23c 7472 9dbd
00000070: c526 e2bd 5851 b4bd e37d fc3d a761 c73d
00000080: b0d2 d73d 4c35 9cbc 6cdc 9fbd ea50 0b3e
00000090: 458f 893c 3f66 e3bd 7ffe 5abd 2be6 10be
000000a0: 6b9f 173d bb6f 88bd 84db 52bd 281f 0d3e
000000b0: 132a c5bd cf03 fb3d 741b 0fbe 218a d63d
000000c0: 7285 c7bd ba50 e93d 649f 9cbc 4fff 9abc
000000d0: 2837 dcbd 4773 11bc c731 a73d 0beb d4bd
000000e0: 514c 4fbd 5ac1 363d 9fcc 8e3d aae7 a13d
000000f0: de7a 063e 32b3 cf3d 0db2 14bd effe f53c
00000100: 68fb 023d b689 8e3d f7e9 9b3d 7f62 113e
00000110: 009a ec3c 9e3c c1bd aa35 82bd 98b5 873d
00000120: 4c82 b43d 757b 02be 7eb1 07be 1e6d 40bd
00000130: 2300 f8bd d01f e63b 49ea 193d 4cb1 033e
00000140: cec0 c93d a8d1 0abd dad9 b93d c366 e73d
00000150: e704 d83c 2ea8 a9bd 4c5b 02be 501c 983b
00000160: c57c 003e 8513 fb3d f37c b4bc 3bad a43c
00000170: 78b0 b13c 0f8b 1f3d 665f f0bc 0433 e8bd
00000180: e188 03bd b880 3cbd 8bad b43d 4a11 bf3d
00000190: 2e52 4dbd 1608 8c3c 0087 af3d e121 bc3d
000001a0: eebd aabd eb1c 983c 2471 c23d ae31 c6bd
000001b0: c736 05be 55f5 5b3d 91b2 9f3c ad51 db3c
000001c0: e50a d5bd 70bd 4c3b 29c0 0a3e cf8f 023d
000001d0: 915b febd 08df 173e cc85 90bb 025c 893d
000001e0: 7d70 cd3c e1b8 553d 9f61 d03d c65c 2b3c
000001f0: 86fe 9d3d f3d4 d3ba bd52 cebd 2382 783c
00000200: bcc9 9cbd e4d6 0cbd 36d7 7abc 4958 d5bd
00000210: dce1 a1bd 5540 a23d 97ca 5d3d 6139 cd3d
00000220: a0f8 02be 69eb dcbd a76e eebd c6b2 503d
00000230: 247b ca3c c711 d7bb 5a25 ac3d 5337 debd
00000240: 0ebd 833c 2a20 eabd fae2 54bd 3ea9 50bd
00000250: e34a 51bd b31d 723d 20d6 07be 09de c83c
00000260: db32 063e 6b01 b13d e707 02be c993 1a3d
00000270: 5497 81bd 92c8 aa3d d75c f2bc 1afe 8cbc
00000280: 3b7d e4bd 5e16 ea3d 3cfa fc3d 43eb 61bc
00000290: e458 0dbe 6f10 ce3d e655 05be 8afe 04bd
000002a0: 639f 71bd 7778 003c 3a53 bb3d f19b 02be
000002b0: 3a5b c33c 781a 95bb 968c d13c 3d69 e5bd
000002c0: 1390 c7bd 50fd 643d 20fc e4bd abe6 0fbb
000002d0: 255b 15be 85fc 6a3d 7af5 013e 6dcd 16be
000002e0: 1487 12bd d350 76bd 5bb9 6fbd d192 eebd
000002f0: 61e1 93bd 83ca 5cbd b450 cc3c 60e7 95bd
00000300: 49de c63d 8e5d 80bd 625d 08bd 6601 dabc
00000310: cc89 093d 73f3 a23d 5ae8 17bd 1195 0abd
00000320: c823 02be 058c 01be 3bd3 9d3d ef9a f8bb
00000330: 5906 473d d2ff 593d bd56 9abd 7a0d 30bd
00000340: 8257 ca3d 44c4 5d3d 85ee 9bbd b244 5ebc
00000350: 1b03 2bbd f3e1 f63d a308 94bc 4214 9cbd
00000360: cd8e a73d 287c 653c 2a7e c5bd 54d3 023e
00000370: b44f ac3d d2a1 d3bd 5c5f 293d f2b3 01be
00000380: 9e3c 6e3d 5b6d e7bd fe9f 9abd 5240 84bd
00000390: febb d6bd 7de2 c03c c332 a6bd d9fe e23b
000003a0: 6f01 59bd 8ea3 e33d d217 413d b97e b9bd
000003b0: 4270 91bd e3dd d6bd 08df 88bd 344f 933d
000003c0: 84c7 09be 1ff5 7b3d ace6 c53c 5bc2 9ebd
000003d0: a0bc 703d a061 893d 5303 10be 8650 9c3d
000003e0: 53a3 063e bcc8 2fbd 4331 623b 6ec1 d1bd
000003f0: f49d 6dbc c1f7 a83d 2588 f13d a721 4fbd

lstm1.bias_ih_l0 f4 [200]
-0.1431124 0.034257956 0.027237268 0.1402783 -0.01943918 -0.050766986 0.120682485 0.1313209
-0.07821611 0.10856623 -0.020412277 -0.0011298314 0.1202202 -0.05849217 -0.103221826 -0.14731508
-0.14016663 -0.08225487 0.058935452 0.013154788 0.06578485 0.0747743 -0.107697904 -0.13030511
-0.017162597 -0.09024797 -0.09024678 -0.0389102 -0.03872769 0.06577328 -0.108728416 -0.039609108
-0.1003609 -0.0031328534 0.10542524 0.088765055 -0.08537972 -0.10365591 -0.097620584 -0.014320699
0.0879851 0.047099233 0.13819109 0.030247638 -0.05212921 -0.1162575 -0.0043836436 -0.117712215
-0.047494117 -0.08912456 -0.08344362 -0.029707862 0.08324163 0.026355153 -0.052011415 0.09683607
0.002879097 -0.0037541736 -0.1210162 -0.06381501 -0.08145397 0.022709033 0.07658653 -0.017307892
0.013920426 0.011357678 0.031636834 -0.025407225 -0.035092153 -0.06901445 -0.063325845 0.025022505
-0.029652547 -0.021198735 0.027973343 -0.027913451 0.005530788 0.1108726 0.09921064 0.068421
0.13174388 -0.044250168 -0.13718079 -0.10772679 -0.12656914 -0.10020897 -0.039552625 -0.14455174
-0.0064635747 0.06492362 0.061120585 -0.09298214 0.017723126 -0.046014246 -0.13288479 -0.005331312
-0.11291403 -0.084177025 -0.007953871 -0.0859718 -0.005985763 0.12283785 -0.024875017 0.11404555
0.13781899 0.0935607 -0.11379928 0.0886452 0.121640064 0.07861816 -0.06059768 0.05996049
0.10541893 -0.122799516 -0.0015825507 -0.09408368 -0.10034042 0.116383836 0.035059694 -0.0079938285
0.09697375 -0.12608802 -0.057461556 0.089739285 0.10500433 -0.10030232 0.08045257 -0.09186133
-0.09423025 -0.14108911 -0.047302913 0.08961816 0.1214645 -0.09114574 0.08609698 -0.052673757
-0.065605395 0.1404028 -0.097503126 -0.088220954 -0.13269487 -0.08351934 -0.05569409 -0.13113332
-0.06022387 -0.037510335 -0.06385971 0.07006825 0.0068517523 -0.025700131 -0.06735408 -0.09895944
0.054089446 0.085018754 -0.038223118 -0.06334068 0.018143402 -0.1356572 -0.114485905 -0.030089967
-0.078755826 -0.011654578 -0.039997224 -0.12832879 0.012601156 -0.07355235 0.11431874 -0.049029447
0.055317026 -0.104799576 0.088371694 -0.08406337 0.12807643 0.11305851 0.10399291 0.09904349
-0.01587971 -0.09064611 -0.11939066 0.020730635 -0.026412658 -0.01856733 -0.016426776 -0.0069326004
0.078626916 0.103732355 -0.023785733 0.12703784 0.06360965 -0.076861404 -0.09353285 0.11424667
-0.0072151893 0.082192056 -0.005458872 -0.027707374 0.09752819 -0.10024506 -0.0036110962 0.057126313
00000000: 0f8c 12be 1252 0c3d b120 df3c 1da5 0f3e
00000010: ea3e 9fbc 0bf1 4fbd 6128 f73d fc78 063e
00000020: c52f a0bd f957 de3d a637 a7bc da16 94ba
00000030: 0236 f63d 7c95 6fbd f765 d3bd c4d9 16be
00000040: d787 0fbe 3e75 a8bd 4d66 713d 2e87 573c
00000050: 35ba 863d 4523 993d b890 dcbd b46e 05be
00000060: 9398 8cbc edd3 b8bd 4ed3 b8bd 4d60 1fbd
00000070: eda0 1ebd 24b4 863d 01ad debd 293d 22bd
00000080: 048a cdbd 8f50 4dbb 30e9 d73d 74ca b53d
00000090: 90db aebd 8d49 d4bd 4ded c7bd 5da1 6abc
000000a0: 8831 b43d 20eb 403d f781 0d3e e5c9 f73c
000000b0: 7085 55bd 6a18 eebd aba4 8fbb 1a13 f1bd
000000c0: 3189 42bd f086 b6bd 7de4 aabd e75d f3bc
000000d0: 967a aa3d c3e6 d73c ec09 55bd fd51 c63d
000000e0: 3baf 3c3b 9508 76bb 57d7 f7bd 72b1 82bd
000000f0: 57d1 a6bd 4b08 ba3c 66d9 9c3d 48c9 8dbc
00000100: 8012 643c 8e15 3a3c a095 013d d022 d0bc
00000110: cabc 0fbd 7357 8dbd fbb0 81bd fffb cc3c
00000120: e6e9 f2bc f8a8 adbc 5a28 e53c c0aa e4bc
00000130: 9d3b b53b 2c11 e33d f32e cb3d 4f20 8c3d
00000140: dee7 063e aa3f 35bd 1f79 0cbe dd9f dcbd
00000150: 579b 01be 5c3a cdbd ef01 22bd 5f05 14be
00000160: 65cc d3bb adf6 843d 9459 7a3d 6c6d bebd
00000170: 1730 913c 6f79 3cbd f312 08be 49b2 aebb
00000180: 793f e7bd 0165 acbd f450 02bc fc11 b0bd
00000190: 3824 c4bb 6992 fb3d b1c6 cbbc b790 e93d
000001a0: 6c20 0d3e c19c bf3d 990f e9bd 9d8b b53d
000001b0: 6d1e f93d 8f02 a13d 4635 78bd 2199 753d
000001c0: e1e5 d73d 507e fbbd 976d cfba f2ae c0bd
000001d0: 477f cdbd a65a ee3d c19a 0f3d 8cf8 02bc
000001e0: 2c9a c63d 381d 01be cf5c 6bbd 3bc9 b73d
000001f0: 830c d73d 4e6b cdbd 51c4 a43d cb21 bcbd
00000200: cafb c0bd aa79 10be b3c0 41bd ba89 b73d
00000210: 61c2 f83d 9eaa babd 9d53 b03d 70c0 57bd
00000220: 1f5c 86bd c0c5 0f3e b8af c7bd 30ad b4bd
00000230: 2ae1 07be 300c abbd 7c1f 64bd d047 06be
00000240: 4ead 76bd 70a4 19bd e1c8 82bd f17f 8f3d
00000250: aa84 e03b 1589 d2bc f0f0 89bd 3fab cabd
00000260: e58c 5d3d 501e ae3d d88f 1cbd c2b8 81bd
00000270: 79a1 943c b9e9 0abe 9677 eabd 3c7f f6bc
00000280: bc4a a1bd d8f2 3ebc 21d4 23bd 9f68 03be
00000290: 1475 4e3c 9da2 96bd f21f ea3d 1ad3 48bd
000002a0: 1b94 623d 29a1 d6bd 38fc b43d 6b29 acbd
000002b0: 7826 033e 388b e73d 3cfa d43d 50d7 ca3d
000002c0: 2a16 82bc aba4 b9bd 1783 f4bd 4bd3 a93c
000002d0: 5c5f d8bc 831a 98bc 7291 86bc de2a e3bb
000002e0: 2607 a13d a171 d43d 4cda c2bc 3516 023e
000002f0: c745 823d 8369 9dbd 278e bfbd 28fa e93d
00000300: 656d ecbb 4f54 a83d 56e0 b2bb 93fa e2bc
00000310: dcbc c73d 484d cdbd 24a8 6cbb 48fd 693d

lstm1.bias_hh_l0 f4 [200]
0.10847313 -0.14304298 -0.1431191 0.07422575 -0.08997879 0.12743783 0.09911169 -0.08312213
-0.09198621 0.053180143 0.11631626 0.1325757 -0.009973981 0.12566678 -0.13512203 -0.09874558
-0.019016651 -0.094149135 0.0868468 -0.005706584 -0.08807422 0.08681849 0.12802063 0.020433858
-0.04286747 -0.03310815 -0.14123394 0.07095402 0.014166941 -0.10479757 -0.02750129 0.017494852
0.033730164 -0.09160256 0.05222632 -0.09251706 0.12132214 0.12957159 -0.049241465 0.079981044
0.06818135 -0.093539536 -0.071811214 0.04589459 -0.13124625 0.028404383 0.0030055095 0.014574629
-0.056316566 -0.054959524 -0.044037607 0.000958325 -0.14087085 -0.024979543 0.05079546 0.09573698
0.032522064 0.12076805 0.07496963 0.014349532 0.038840465 -0.0804531 0.13287972 0.12895124
-0.07132313 -0.06582125 0.010618746 0.121293426 -0.0054770624 -0.09984 -0.042068522 0.11636406
-0.09490712 0.0019073592 -0.11537616 0.13113144 0.05132759 -0.13866942 -0.118449986 0.15137468
-0.051204793 -0.08804991 0.048160926 -0.044143353 0.13084997 0.061499305 -0.14102013 -0.035384502
0.06236968 -0.06909812 -0.0055127097 0.017332511 0.086497314 -0.0063324184 -0.044530854 0.033146784
-0.08199561 -0.09504375 -0.09992268 0.026759868 -0.13295951 0.11197391 -0.09811607 0.13451459
0.12894359 -0.07319055 0.11216307 0.04205197 0.112059854 0.037203338 -0.066379644 0.09773774
-0.039636556 0.074289985 -0.116201535 -0.07169632 -0.0807792 -0.14979066 -0.0995171 0.1195
-0.054553304 0.07975315 0.13815191 0.025674263 -0.08088963 0.12579611 -0.056132838 -0.13252912
-0.02376659 -0.012645257 -0.0495925 -0.028779587 -0.056003653 -0.0891032 0.091922015 0.042021096
-0.121701844 -0.042363133 0.02847098 -0.00782737 0.034847196 -0.13264024 0.090717375 0.0735018
-0.08602675 -0.13032334 -0.10780562 -0.11020779 0.020051911 0.08848838 -0.07571754 0.045710385
-0.078132436 -0.06222602 -0.019293383 -0.050310194 -0.13548782 0.02955482 -0.0036388596 0.04696028
-0.056069523 0.02288552 0.052000076 -0.029135633 -0.0105540035 0.09818661 0.09517244 0.12071966
-0.13415025 0.045330234 -0.055199947 -0.08895648 0.12524034 -0.03816024 -0.02798821 0.10227526
0.0074468064 -0.06728807 0.051434778 0.025966218 -0.06146868 -0.13726844 0.06473483 -0.007153568
-0.11434338 -0.13709106 -0.055773225 -0.037322685 0.06416585 -0.029307432 0.04245384 0.007385669
0.017787945 0.037886363 0.044059716 0.07769914 -0.11736789 -0.055756215 -0.0027229432 -0.08383962
00000000: 2927 de3d dc79 12be d08d 12be ac03 983d
00000010: cd46 b8bd 107f 023e 12fb ca3d ef3b aabd
00000020: 4463 bcbd 6cd3 593d 3837 ee3d edc1 073e
00000030: e969 23bc cbae 003e 6e5d 0abe 1f3b cabd
00000040: cfc8 9bbc 43d1 c0bd bcdc b13d 4cfe babb
00000050: 4260 b4bd e4cd b13d d717 033e e864 a73c
00000060: cd95 2fbd 699c 07bd a19f 10be 5750 913d
00000070: 751c 683c 1ca0 d6bd 634a e1bc 5d51 8f3c
00000080: a428 0a3d 1f9a bbbd 44eb 553d 9679 bdbd
00000090: be77 f83d 6aae 043e 6bb1 49bd 1acd a33d
000000a0: aaa2 8b3d a891 bfbd c211 93bd f7fb 3b3d
000000b0: 6b65 06be 4fb0 e83c 15f8 443b 6dca 6e3c
000000c0: 33ac 66bd 3d1d 61bd c760 34bd 1a38 7b3a
000000d0: 7340 10be e6a1 ccbc e60e 503d c011 c43d
000000e0: db35 053d 3d55 f73d ad89 993d 4d1a 6b3c
000000f0: 2e17 1f3d 98c4 a4bd 9f11 083e cb0b 043e
00000100: dc11 92bd 4bcd 86bd 40fa 2d3c b068 f83d
00000110: ee78 b3bb ea78 ccbd 0b50 2cbd 4850 ee3d
00000120: aa5e c2bd 5b00 fa3a 564a ecbd 5247 063e
00000130: e13c 523d 5bff 0dbe e895 f2bd f701 1b3e
00000140: 1ebc 51bd 8353 b4bd 6444 453d a9cf 34bd
00000150: 89fd 053e b2e6 7b3d 9567 10be 57ef 10bd
00000160: 5977 7f3d 5183 8dbd f6a3 b4bb e9fc 8d3c
00000170: 8125 b13d 2d80 cfbb fc65 36bd ecc4 073d
00000180: 50ed a7bd 4ca6 c2bd 43a4 ccbd 8337 db3c
00000190: 8a26 08be 9452 e53d 14f1 c8bd 31be 093e
000001a0: ca09 043e ede4 95bd c0b5 e53d b03e 2c3d
000001b0: a37f e53d 8762 183d 0df2 87bd b92a c83d
000001c0: f159 22bd 5925 983d 12fb edbd 85d5 92bd
000001d0: 916f a5bd b962 19be 9fcf cbbd 6abc f43d
000001e0: 4973 5fbd 9f55 a33d b277 0d3e d552 d23c
000001f0: 76a9 a5bd b2d0 003e 8ceb 65bd b7b5 07be
00000200: 27b2 c2bc 0d2e 4fbc 8121 4bbd 2bc3 ebbc
00000210: 1664 65bd bd7b b6bd 9c41 bc3d 501e 2c3d
00000220: d13e f9bd f784 2dbd f93b e93c 5f3e 00bc
00000230: efbb 0e3d d8d2 07be 08ca b93d 1d88 963d
00000240: cb2e b0bd 7b73 05be 31c9 dcbd 9fb4 e1bd
00000250: e843 a43c 6539 b53d cc11 9bbd d03a 3b3d
00000260: e603 a0bd b6e0 7ebd 280d 9ebc 1012 4ebd
00000270: 52bd 0abe f31c f23c ef79 6ebb 6c59 403d
00000280: 28a9 65bd 6a7a bb3c 08fe 543d daad eebc
00000290: b3ea 2cbc 1016 c93d c5e9 c23d de3b f73d
000002a0: af5e 09be 32ac 393d 5719 62bd d12e b6bd
000002b0: 013f 003e e94d 1cbd 8847 e5bc b175 d13d
000002c0: 5704 f43b 54ce 89bd 46ad 523d 1bb7 d43c
000002d0: 95c6 7bbd 1990 0cbe b293 843d 7a68 eabb
000002e0: dd2c eabd 9961 0cbe 7772 64bd acdf 18bd
000002f0: 6369 833d 2416 f0bc 14e4 2d3d 7b03 f23b
00000300: 06b8 913c bb2e 1b3d f677 343d ba20 9f3d
00000310: 945e f0bd a160 64bd 6873 32bb 1bb4 abbd

lstm2.weight_ih_l0 f4 [240, 50]
0.079248674 0.0026223483 -0.09304934 -0.1278974 -0.05361978 -0.063194744 -0.11654762 -0.020828027
-0.015860572 0.04404547 -0.114069775 -0.01230902 -0.08724227 -0.06514584 -0.08698572 -0.09048039
-0.07496446 -0.03677733 -0.097771674 0.09265426 -0.10482907 -0.004663162 0.02363978 0.03572885
0.11118089 -0.0065782326 -0.060261667 -0.083172135 -0.038311392 0.07194609 -0.11656404 0.020228287
-0.012603659 -0.05116884 -0.0910043 -0.09385095 -0.06609057 -0.08128094 0.0361595 -0.092935674
0.020778388 0.030225474 -0.0858916 0.020623649 0.043467242 0.024597507 0.069509126 -0.0059561655
0.108736955 -0.052056268 0.107834645 0.052405663 -0.06204279 0.0076841284 0.06020051 -0.09046431
0.027240133 0.09621785 0.0022748893 0.09733499 -0.08005208 0.104216434 -0.026206506 0.007400157
0.009496383 -0.0013432339 -0.012781373 -0.013952176 -0.0030452795 -0.10338621 0.04911393 0.010991562
0.037794065 -0.08686217 0.060139798 -0.065724745 -0.09234079 -0.050407007 0.01937341 -0.028614907
-0.110459305 0.12480576 -0.09657908 0.06400837 0.02193428 -0.11473279 -0.039978605 0.066373244
-0.12494336 0.09294985 0.00071254885 -0.10683391 0.016091932 0.09854824 0.074374065 0.07788569
-0.034534097 0.032909207 0.095183365 -0.106579065 0.11077723 -0.124402694 0.03645724 0.042660467
-0.021395817 -0.07130981 0.08545865 -0.05161222 -0.027509786 0.10409225 0.06905868 -0.025701562
-0.10578365 0.039739974 -0.009936426 0.098840736 -0.113795415 0.0033888514 0.03142686 0.106906734
0.11181576 0.04808502 0.003456594 0.015539365 -0.02748567 -0.010188899 0.05376149 -0.0093600135
0.09001275 -0.037835557 -0.050347585 -0.036550708 -0.07539268 -0.051383946 -0.11538853 0.13761933
0.06717333 -0.020449374 0.005752099 0.10246965 0.0026435568 0.069641516 -0.027487332 -0.036629125
-0.06482557 0.05926188 0.08679541 -0.023954943 0.050170135 -0.021056075 0.047418986 -0.00028913142
0.06273169 -0.04334643 -0.12121818 0.0154459765 -0.102523305 -0.0074525387 0.056785937 -0.094944246
-0.08239536 -0.085701056 0.023206728 0.009628205 -0.10311673 -0.016516965 -0.10206261 0.12837231
0.1137745 -0.027014216 -0.06548873 -0.04943801 0.047812767 0.023477025 -0.06987661 0.050429445
0.03752475 -0.07733684 -0.104042046 0.07920718 0.06948633 -0.022179427 -0.0015571214 -0.011692813
-0.023939557 -0.114407405 0.053881552 -0.087779835 0.0011860952 0.0015475205 -0.115385205 0.08192279
0.002789224 -0.042180035 -0.06933643 -0.085413866 -0.022035882 0.1041363 0.036897015 -0.13011004
0.061996143 -0.102313615 0.10449443 0.07935509 -0.060774885 -0.122861505 0.02898728 0.031841017
0.114177965 0.022677608 -0.114842534 -0.025820494 0.10219745 0.0753472 -0.02338724 -0.06458772
-0.004655066 -0.07501751 -0.0182751 -0.07121104 0.05164499 0.07286451 -0.12910733 0.038568392
0.10858278 -0.07437089 0.033662263 -0.10602171 0.082074754 0.01854318 0.126516 0.04143091
0.039217416 0.038498092 -0.12431432 0.118668474 0.03713315 0.01957611 -0.109837346 0.07127498
0.09393357 0.05417324 -0.12088947 0.016204758 -0.06857817 -0.0048986236 0.075629756 0.083217815
0.051557392 -0.03253381 0.0469368 -0.024992118 -0.027500553 -0.035771232 -0.1163615 -0.073789656
00000000: 214d a23d b4db 2b3b a790 bebd 89f7 02be
00000010: 6aa0 5bbd 3f6c 81bd 85b0 eebd 8a9f aabc
00000020: 08ee 81bc 0669 343d 6a9d e9bd c6ab 49bc
00000030: 13ac b2bd 2f6b 85bd 9225 b2bd c84d b9bd
00000040: f886 99bd d3a3 16bd 843c c8bd 84c1 bd3d
00000050: a0b0 d6bd 70cd 98bb 36a8 c13c 6a58 123d
00000060: ceb2 e33d 378e d7bb f0d4 76bd 2756 aabd
00000070: 68ec 1cbd 7958 933d 21b9 eebd cbb5 a53c
00000080: 947f 4ebc 6b96 51bd 7660 babd ed34 c0bd
00000090: 7e5a 87bd 9f76 a6bd fc1b 143d 0f55 bebd
000000a0: 7037 aa3c 6a9b f73c efe7 afbd edf2 a83c
000000b0: b50a 323d b680 c93c cd5a 8e3d f02b c3bb
000000c0: 7bb1 de3d f438 55bd 69d8 dc3d 52a7 563d
000000d0: 9520 7ebd 24cb fb3b cf94 763d 5a45 b9bd
000000e0: b326 df3c dd0d c53d 4f16 153b 9157 c73d
000000f0: 58f2 a3bd 6d6f d53d 07af d6bc 047d f23b
00000100: b896 1b3c 730f b0ba f768 51bc ab97 64bc
00000110: 5093 47bb 26bc d3bd b02b 493d f415 343c
00000120: f3cd 1a3d cbe4 b1bd 2655 763d b29a 86bd
00000130: 2b1d bdbd 9477 4ebd fcb4 9e3c cf69 eabc
00000140: 7d38 e2bd 2a9a ff3d 41cb c5bd d216 833d
00000150: 85af b33c 06f9 eabd 9bc0 23bd b2ee 873d
00000160: 4ee2 ffbd 7e5c be3d 58ca 3a3a bdcb dabd
00000170: 3ad3 833c a9d3 c93d 6e51 983d 8882 9f3d
00000180: a073 0dbd cecb 063d 7fef c23d 2046 dabd
00000190: 2cdf e23d d7c6 febd 3054 153d bebc 2e3d
000001a0: 4846 afbc e10a 92bd f204 af3d 5667 53bd
000001b0: 345c e1bc 512e d53d a36e 8d3d 158c d2bc
000001c0: 19a5 d8bd 62c6 223d 64cc 22bc 036d ca3d
000001d0: 920d e9bd 7e17 5e3b 73b9 003d ebf1 da3d
000001e0: a9ff e43d ccf4 443d 0688 623b d298 7e3c
000001f0: a129 e1bc 57ef 26bc 0235 5c3d be5a 19bc
00000200: 9b58 b83d 75f9 1abd 4539 4ebd 32b6 15bd
00000210: 7a67 9abd f977 52bd d250 ecbd 15ec 0c3e
00000220: 2c92 893d 7285 a7bc 1b7c bc3b 9cdb d13d
00000230: 863f 2d3b 36a0 8e3d 1d2d e1bc 6c08 16bd
00000240: 45c3 84bd 96bc 723d cbc1 b13d 283d c4bc
00000250: 337f 4d3d ca7d acbc 693a 423d 9096 97b9
00000260: 7979 803d 078c 31bd 3d41 f8bd 1f11 7d3c
00000270: bdf7 d1bd 6d34 f4bb 5f98 683d 2172 c2bd
00000280: e6be a8bd 0984 afbd 091c be3c 9ebf 1d3c
00000290: dd2e d3bd 964e 87bc 3406 d1bd 0874 033e
000002a0: 9b02 e93d eb4c ddbc f51e 86bd 837f 4abd
000002b0: 52d7 433d e452 c03c 781b 8fbd 1b8f 4e3d
000002c0: 8db3 193d c762 9ebd ff13 d5bd 6037 a23d
000002d0: d94e 8e3d a1b1 b5bc 5318 ccba 3693 3fbc
000002e0: e41c c4bc 6e4e eabd e7b2 5c3d eac5 b3bd
000002f0: c076 9b3a 2cd6 ca3a 144f ecbd 23c7 a73d
00000300: 6acb 363b f9c4 2cbd 4200 8ebd 77ed aebd
00000310: 9884 b4bc 6a45 d53d 5321 173d 913b 05be
00000320: abef 7d3d cd89 d1bd 2d01 d63d ec84 a23d
00000330: 16ef 78bd d09e fbbd bb76 ed3c ba6b 023d
00000340: 23d6 e93d 64c6 b93c 9032 ebbd 8085 d3bc
00000350: e64c d13d a24f 9a3d 9996 bfbc 9146 84bd
00000360: 8689 98bb c8a2 99bd aab5 95bc 18d7 91bd
00000370: b289 533d fd39 953d b634 04be e4f9 1d3d
00000380: a660 de3d c44f 98bd 71e1 093d e921 d9bd
00000390: cf16 a83d dee7 973c 698d 013e 75b3 293d
000003a0: 71a2 203d 2db0 1d3d 8298 febd 7508 f33d
000003b0: ee18 183d 145e a03c 67f2 e0bd 9ef8 913d
000003c0: 3e60 c03d c2e4 5d3d e694 f7bd d7bf 843c
000003d0: b672 8cbd a284 a0bb c6e3 9a3d 1a6e aa3d
000003e0: d82d 533d 2c42 05bd cd40 403d 45bc ccbc
000003f0: d748 e1bc db84 12bd f04e eebd 081f 97bd

lstm2.weight_hh_l0 f4 [240, 60]
0.008389239 -0.118017785 0.042300675 -0.07116831 0.008934992 0.012350159 -0.08574367 0.069754146
-0.11264475 -0.008707869 -0.10600426 -0.057966817 0.13083524 -0.004254573 -0.090341605 0.06182992
-0.06511949 0.12519674 0.038847324 0.11735675 0.05441709 0.07595555 0.053823665 0.052278195
-0.053444777 -0.10582014 -0.00053176854 0.061800063 0.08302458 0.0029909923 0.00553519 0.044904802
-0.108441755 -0.033729583 -0.031019984 0.03410513 -0.08107996 0.008691541 -0.08517224 -0.10799347
-0.131025 -0.08291071 -0.12907882 0.11452569 0.11019573 -0.075495146 0.045470547 -0.12173807
-0.05870135 -0.13021594 -0.011371617 0.009662934 0.031142265 -0.10449706 0.018357499 0.06702444
-0.05287464 0.017033983 -0.017400376 0.007967472 -0.034817096 -0.026276631 0.031761743 0.034145333
0.02149764 -0.022333108 0.12521984 -0.06641768 0.0847772 -0.026091086 0.121846616 0.05468024
-0.11539228 0.07340387 -0.11059619 0.030965922 -0.12012792 -0.011427316 -0.024461396 0.0076494836
0.088680886 0.0815987 -0.054117125 0.045649014 0.03205929 0.043813445 0.115310006 -0.010833248
0.020491812 -0.037022267 -0.09241944 0.12785853 0.12569876 0.13892055 -0.05343819 -0.117430165
-0.07919184 0.068965815 -0.06821513 0.029540837 -0.034683052 -0.0017722967 0.022272393 -0.12153361
0.021905866 -0.118031345 -0.07839717 0.045257173 -0.11710873 0.07499199 -0.02352271 0.025317896
-0.04519594 0.11646951 -0.037572388 -0.050805174 -0.105918504 -0.017360127 -0.014253077 0.09489084
-0.02903309 -0.08027823 0.10935861 0.09093232 -0.015865264 0.08527398 0.011424389 -0.030392217
0.063864015 0.090015195 0.05150166 0.0199169 0.09807952 -0.08848098 0.0044707484 0.0008549283
0.04393791 -0.0794799 0.08242882 0.03268364 -0.065990195 -0.044394203 -0.035111282 0.07084895
0.04081612 0.030201657 0.06320818 -0.011409245 -0.0253652 -0.016188418 0.013981079 0.026454525
0.055931997 0.085368454 -0.026688093 -0.0020020446 -0.061868787 0.09628075 -0.10596951 0.11691737
0.056381505 0.02503064 0.09709117 -0.10156317 -0.07327031 -0.051131133 -0.042699695 0.07103463
0.011108555 -0.052021153 0.02843593 0.053952266 -0.11654743 -0.074912526 -0.05626481 0.059630055
-0.04332338 0.05399904 -0.016350469 0.06337207 0.026506973 0.120953955 0.09613983 0.12876637
0.043400735 -0.11430025 0.01787326 0.09064311 0.06977096 -0.11365543 0.073847406 -0.11289678
0.088365376 -0.09592086 0.048662014 -0.113098696 0.11072911 0.09475626 -0.03248956 -0.09942606
0.04781332 -0.07579425 0.11433764 -0.016602796 -0.106818065 0.02272734 -0.062459767 -0.09733241
0.062254626 -0.12029155 0.014639302 0.017122673 -0.05704527 -0.10603179 0.0036734103 0.036183704
-0.11067394 0.01528215 -0.10645683 -0.07918137 0.103085406 0.07712984 0.010683432 0.030895907
-0.07433832 0.0043445295 -0.06438669 0.07194798 -0.056165807 -0.033302743 0.0759897 0.036164608
0.045251645 0.015144581 -0.092042774 0.039519284 0.03369527 0.009003587 -0.06044206 0.10833487
-0.015196113 0.06280763 0.10739213 0.03174637 0.11248937 0.02970802 0.040707774 0.09451035
-0.04230901 -0.09550318 -0.12344518 -0.108748905 0.07442052 -0.026571214 -0.10175696 -0.020151317
00000000: 0573 093c 4fb3 f1bd 7943 2d3d b1c0 91bd
00000010: 1364 123c 5258 4a3c 619a afbd 43db 8e3d
00000020: 4ab2 e6bd 73ab 0ebc c318 d9bd 9d6e 6dbd
00000030: acf9 053e f269 8bbb 0505 b9bd 5f41 7d3d
00000040: 5e5d 85bd 9333 003e 5f1e 1f3d bc58 f03d
00000050: 74e4 5e3d 958e 9b3d 3476 5c3d a921 563d
00000060: e9e8 5abd 3bb8 d8bd 6266 0bba 1022 7d3d
00000070: ca08 aa3d 8604 443b 8a60 b53b 19ee 373d
00000080: b616 debd 0828 0abd 9f1d febc d2b1 0b3d
00000090: 400d a6bd f766 0e3c c96e aebd ae2b ddbd
000000a0: 6b2b 06be 17cd a9bd 3d2d 04be 728c ea3d
000000b0: 4dae e13d 339d 9abd 533f 3a3d cf51 f9bd
000000c0: d470 70bd 5457 05be 0550 3abc 4851 1e3c
000000d0: 101e ff3c 8e02 d6bd 7762 963c 1c44 893d
000000e0: 1493 58bd da8a 8b3c 3c8b 8ebc 008a 023c
000000f0: 5f9c 0ebd 1742 d7bc 9a18 023d fadb 0b3d
00000100: d21b b03c ecf3 b6bc a139 003e fe05 88bd
00000110: ab9f ad3d f9bc d5bc b88a f93d 63f8 5f3d
00000120: ca52 ecbd c554 963d 4180 e2bd 3fac fd3c
00000130: a005 f6bd a339 3bbc 4463 c8bc 85a8 fa3b
00000140: 539e b53d 381d a73d eba9 5dbd 76fa 3a3d
00000150: 9a50 033d ba75 333d a727 ec3d ef7d 31bc
00000160: 72de a73c a9a4 17bd 6746 bdbd 59ed 023e
00000170: 2db7 003e 3041 0e3e 01e2 5abd 3a7f f0bd
00000180: 552f a2bd f33d 8d3d 60b4 8bbd a0ff f13c
00000190: d10f 0ebd 694c e8ba 9874 b63c 9de6 f8bd
000001a0: ee73 b33c 6bba f1bd b28e a0bd 965f 393d
000001b0: b4d6 efbd 6795 993d b3b2 c0bc 7a67 cf3c
000001c0: 611f 39bd 9187 ee3d 81e5 19bd 1619 50bd
000001d0: cdeb d8bd d336 8ebc bd85 69bc 2156 c23d
000001e0: ced6 edbc ea68 a4bd 68f7 df3d b93a ba3d
000001f0: dff7 81bc 20a4 ae3d 5c2d 3b3c 19f9 f8bc
00000200: 23cb 823d e359 b83d 68f3 523d c428 a33c
00000210: eadd c83d 8435 b5bd 5b7f 923b 441d 603a
00000220: 3df8 333d 5cc6 a2bd 71d0 a83d 48df 053d
00000230: de25 87bd b2d6 35bd d9d0 0fbd 4119 913d
00000240: ce2e 273d 7769 f73c 4a73 813d d8ed 3abc
00000250: aeca cfbc 939d 84bc e510 653c 29b7 d83c
00000260: f318 653d a8d5 ae3d fda0 dabc bc34 03bb
00000270: 206a 7dbd d82e c53d 8b06 d9bd 6072 ef3d
00000280: 4bf0 663d 0f0d cd3c bcd7 c63d 5a00 d0bd
00000290: bf0e 96bd e16e 51bd e0e5 2ebd 9b7a 913d
000002a0: a800 363c 2214 55bd 78f2 e83c 0dfd 5c3d
000002b0: 6bb0 eebd bd6b 99bd ee75 66bd a53e 743d
000002c0: db73 31bd 192e 5d3d 6bf1 85bc 37c9 813d
000002d0: 2725 d93c b5b6 f73d f6e4 c43d 55db 033e
000002e0: f8c4 313d 4016 eabd f16a 923c 18a3 b93d
000002f0: 14e4 8e3d 2ec4 e8bd 4f3d 973d 6d36 e7bd
00000300: e8f8 b43d 2872 c4bd d251 473d 4aa0 e7bd
00000310: f2c5 e23d 920f c23d c613 05bd e49f cbbd
00000320: e6d7 433d 043a 9bbd da29 ea3d 9602 88bc
00000330: 6ec3 dabd b02e ba3c d0d5 7fbd 3756 c7bd
00000340: b5fe 7e3d 6b5b f6bd afd9 6f3c d944 8c3c
00000350: 4da8 69bd 3227 d9bd 99bd 703b 5d35 143d
00000360: 05a9 e2bd fc61 7a3c 0a06 dabd d829 a2bd
00000370: 711e d33d 40f6 9d3d 9009 2f3c 6a19 fd3c
00000380: b03e 98bd 8e5c 8e3b 2bdd 83bd 7659 933d
00000390: 1e0e 66bd 7568 08bd 7da0 9b3d 5721 143d
000003a0: ca59 393d fa20 783c ec80 bcbd f9de 213d
000003b0: 0d04 0a3d c883 133c 1892 77bd acde dd3d
000003c0: 1ef9 78bc 49a1 803d 68f0 db3d 7b08 023d
000003d0: d460 e63d 3c5e f33c 32bd 263d a48e c13d
000003e0: 364c 2dbd 2c97 c3bd d4d0 fcbd bfb7 debd
000003f0: c969 983d e0ab d9bc f465 d0bd 6014 a5bc

lstm2.bias_ih_l0 f4 [240]
0.06315565 0.0818131 0.060815077 0.08322781 -0.04334553 -0.023352979 -0.12740098 -0.11780481
0.11415701 -0.07392244 0.03372672 0.0723525 -0.064085886 0.11221649 0.0058750976 0.024846787
-0.017848922 -0.09155642 0.07703456 0.058928635 -0.033431437 0.031737927 0.009019638 -0.0812955
0.061224278 -0.046338897 0.08452185 0.065218955 0.0010361185 -0.116348095 -0.09585278 -0.018789962
0.021321446 0.09680843 0.1088241 0.13077697 0.031220054 0.060893595 -0.0057917316 0.06817513
-0.039868794 0.04277068 -0.105815165 -0.08777223 0.09980668 0.0928134 -0.026245942 0.024970265
0.04397798 -0.096375175 -0.11006921 -0.11250912 0.07804218 -0.006255854 -0.01584225 0.03218164
0.08498954 -0.040568158 -0.008672084 -0.076420896 0.071431056 0.08113257 0.011572934 0.017974531
0.02243325 -0.034179848 -0.09404473 0.040018227 0.094275564 -0.06629323 0.071251445 0.015538188
0.008008639 0.07269004 -0.11953837 0.049208377 -0.118346825 -0.04986028 -0.04274633 0.036253653
-0.0005279484 -0.10738674 0.07483311 0.08174659 0.026924461 0.06319717 -0.072588235 0.06687963
0.0072693545 0.11229883 -0.10509137 -0.09105425 -0.0925556 0.10820182 -0.112269804 0.098341696
-0.13373742 -0.033013232 -0.024562955 -0.023180202 0.048302855 0.0109218955 -0.1251139 -0.013047852
0.034430858 0.101629406 -0.042062722 0.08602532 -0.0758316 -0.11332021 0.06042009 -0.062121473
-0.11477341 -0.12945375 -0.101242706 0.08058885 0.06457211 -0.057023536 0.06854027 -0.11886259
-0.05685275 0.0033274824 0.055353124 -0.09369743 -0.031315774 -0.018397342 0.094132505 -0.11886204
0.007190374 0.027683973 -0.07371015 -0.050617207 -0.10530061 0.052956667 0.096107945 -0.016525645
0.00057801534 -0.01411319 0.021039715 -0.03552589 -0.05749158 0.013506003 -0.035762504 -0.0345564
-0.004693188 0.08565362 0.0070556356 0.10090269 -0.09752756 0.0289003 -0.070616946 -0.054901917
0.103878826 -0.035892252 0.10273993 0.06436963 -0.024524026 0.06605623 0.037636373 -0.076660715
0.0943543 -0.028805822 0.056521725 0.09513003 0.07712875 -0.07541779 -0.08150235 -0.09124435
0.027381275 -0.023138102 -0.11753105 0.05235933 -0.02667934 0.108750425 -0.023693385 -0.08109681
0.05978345 0.07608008 0.07670057 -0.06698887 0.04908379 -0.032811426 0.014286483 0.024866778
-0.012579344 0.07358308 0.0124665275 0.015501347 -0.109245 0.020115424 0.006277875 -0.006806477
-0.06610972 -0.042950276 0.08440163 -0.01645116 0.07566425 -0.098979294 0.014309326 0.08202549
-0.06826399 0.10768685 0.09752605 -0.045923337 0.002663877 0.10136573 -0.00017587654 0.052551378
0.09286932 0.045184843 0.04346224 1.0052625e-05 0.004161444 -0.02460218 -0.09249735 -0.12167139
-0.12640414 -0.12081445 -0.09031514 -0.048428245 -0.07669431 0.04154756 0.0073601766 0.047446337
0.119746536 0.10502324 -0.13412003 -0.12593405 0.08566505 -0.054328438 0.036859933 -0.119071566
0.110460885 0.09054763 0.103246115 0.0380808 0.08989555 -0.12632996 -0.10507863 0.09942491
00000000: c057 813d a08d a73d 3b19 793d 5873 aa3d
00000010: 158b 31bd bf4e bfbc 6775 02be a643 f1bd
00000020: 27cb e93d a664 97bd 0725 0a3d 8c2d 943d
00000030: 763f 83bd c2d1 e53d e483 c03b 7d8b cb3c
00000040: e737 92bc ef81 bbbd 4cc4 9d3d 275f 713d
00000050: 67ef 08bd a1ff 013d 1bc7 133c 417e a6bd
00000060: 4fc6 7a3d dbcd 3dbd cb19 ad3d 8491 853d
00000070: 5ece 873a e947 eebd 764e c4bd 68ed 99bc
00000080: 50aa ae3c 8043 c63d 2bdf de3d 66ea 053e
00000090: 33c1 ff3c 906b 793d 91c8 bdbb 679f 8b3d
000000a0: 764d 23bd 4f30 2f3d 9fb5 d8bd edc1 b3bd
000000b0: 7267 cc3d f414 be3d bb01 d7bc 718e cc3c
000000c0: 4122 343d 5960 c5bd f76b e1bd 2e6b e6bd
000000d0: 94d4 9f3d e8fd ccbb 9bc7 81bc e5d0 033d
000000e0: ff0e ae3d cc2a 26bd 5b15 0ebc 8f82 9cbd
000000f0: 724a 923d d528 a63d 679c 3d3c 533f 933c
00000100: efc5 b73c 2b00 0cbd 869a c0bd 27ea 233d
00000110: 8c13 c13d bfc4 87bd 47ec 913d e293 7e3c
00000120: ab36 033c 84de 943d 88d0 f4bd b98e 493d
00000130: d25f f2bd 4b3a 4cbd c716 2fbd b67e 143d
00000140: 0466 0aba 94ed dbbd 1a42 993d c26a a73d
00000150: b090 dc3c 856d 813d 24a9 94bd 30f8 883d
00000160: c433 ee3b eefc e53d 253a d7bd a77a babd
00000170: ca8d bdbd ea98 dd3d b6ed e5bd 5f67 c93d
00000180: 76f2 08be e238 07bd 4038 c9bc 68e4 bdbc
00000190: 37d9 453d c0f1 323c dc1d 00be a8c6 55bc
000001a0: 5f07 0d3d 1423 d03d f649 2cbd 0b2e b03d
000001b0: 994d 9bbd 6d14 e8bd 0e7b 773d 1673 7ebd
000001c0: 520e ebbd 868f 04be 5658 cfbd c40b a53d
000001d0: 623e 843d 8391 69bd d75e 8c3d 3b6e f3bd
000001e0: 6ede 68bd e411 5a3b f5b9 623d 70e4 bfbd
000001f0: f844 00bd 06b6 96bc 8bc8 c03d f16d f3bd
00000200: 3b9d eb3b 80c9 e23c 59f5 96bd fd53 4fbd
00000210: d9a7 d7bd 17e9 583d 3ed4 c43d ca60 87bc
00000220: f485 173a 023b 67bc 7b5b ac3c 9883 11bd
00000230: 4a7c 6bbd 4848 5d3c b47b 12bd 038b 0dbd
00000240: 50c9 99bb 2a6b af3d f632 e73b 12a6 ce3d
00000250: 88bc c7bd 52c0 ec3c 9e9f 90bd d5e0 60bd
00000260: 6cbe d43d c103 13bd 5069 d23d 39d4 833d
00000270: 9ce6 c8bc 7d48 873d 9928 1a3d 4b00 9dbd
00000280: d43c c13d 30fa ebbc 5383 673d 88d3 c23d
00000290: aef5 9d3d a474 9abd b4ea a6bd 51de babd
000002a0: b24e e03c 1e8c bdbc 1fb4 f0bd bd76 563d
000002b0: a28e dabc 8bb8 de3d a118 c2bc 1616 a6bd
000002c0: 7edf 743d dfcf 9b3d 3015 9d3d 7631 89bd
000002d0: 160c 493d 4665 06bd da11 6a3c 6ab5 cb3c
000002e0: 9819 4ebc bab2 963d 6840 4c3c 5df9 7d3c
000002f0: d8bb dfbd 1ac9 a43c a2b6 cd3b de08 dfbb
00000300: 8864 87bd a1ec 2fbd c3da ac3d 95c4 86bc
00000310: dcf5 9a3d a8b5 cabd aa71 6a3c fbfc a73d
00000320: fecd 8bbd ec8a dc3d bdbb c73d 1c1a 3cbd
00000330: 7194 2e3b d698 cf3d 806b 38b9 1d40 573d
00000340: 4532 be3d be13 393d 7605 323d b2a7 2837
00000350: b95c 883b 838a c9bc 406f bdbd da2e f9bd
00000360: 1670 01be 916d f7bd 25f7 b8bd b25c 46bd
00000370: e811 9dbd c62d 2a3d a32d f13b 1757 423d
00000380: ac3d f53d 6d16 d73d c356 09be dbf4 00be
00000390: 2871 af3d 7f87 5ebd 71fa 163d cbdb f3bd
000003a0: 5139 e23d 0971 b93d b372 d33d 9dfa 1b3d
000003b0: 281b b83d a45c 01be 7733 d7bd 4a9f cb3d

lstm2.bias_hh_l0 f4 [240]
0.061126888 -0.10304208 -0.081713855 0.012307627 -0.11556086 -0.094825186 0.05741075 -0.1015729
-0.12899996 -0.03228374 -0.018929087 -0.026706427 0.006342267 -0.008029319 -0.0018048086 -0.008515225
-0.10473131 -0.13587919 -0.11058146 -0.115160525 0.02105 0.07793198 -0.015439759 0.09948075
-0.03247716 -0.08280506 -0.116365954 -0.058367047 0.1244149 -0.041752238 -0.039981335 0.09697448
-0.10061959 -0.013813795 0.07361862 0.09782912 -0.06786514 0.09273942 0.11673097 0.026495293
-0.005173128 0.03883965 -0.11791128 0.024267366 0.023425967 -0.0917326 -0.04967712 -0.111855604
0.077985175 0.105270594 0.06124115 -0.04152826 -0.07232755 -0.025014194 -0.05011086 0.03607927
-0.13359839 -0.115777165 -0.05807399 0.113784544 -0.07348691 -0.030548163 -0.014939304 0.08072264
0.06112036 -0.035071723 -0.07355672 -0.0542202 0.11512614 -0.015373837 0.08163982 -0.061189428
0.030420458 -0.10724007 0.07268119 -0.06846099 -0.055609502 -0.026180908 0.041102495 0.108938396
0.065565266 0.019061107 0.059471216 -0.030297019 -0.017745238 -0.099058755 0.043733805 -0.01768094
-0.020112872 0.09362688 0.1055415 -0.06119557 -0.09514645 0.04377616 0.001069656 -0.07573179
0.0664814 0.02506339 -0.11736141 0.017811209 -0.013997944 -0.037544526 0.0055947737 0.015508281
0.119123094 0.093989894 -0.13543944 -0.11092166 0.0852657 -0.06396998 -0.050897833 -0.13527343
0.060234908 -0.108196974 -0.08304407 0.068433896 0.11176192 -0.105940714 0.061251655 -0.0006548231
0.022621779 0.07116419 0.08084039 -0.06924212 0.07008105 0.054713737 -0.019482734 -0.038187172
-0.022125755 -0.05857153 0.101690345 -0.024259225 -0.071175955 0.045686916 0.12852548 0.109062746
0.08401321 -0.06452928 0.035906766 0.0588076 -0.0049718586 0.08671089 0.05681672 -0.028461348
-0.106941506 -0.077715546 -0.12159122 -0.07089162 -0.11356307 -0.068475395 0.09927069 0.09293796
0.076339945 0.047732916 -0.10827478 0.13147014 0.049679205 -0.070034035 -0.020817809 0.026821997
0.045205723 -0.031181067 0.1200862 0.048987776 -0.054308787 0.0072929375 -0.09098593 -0.075591356
-0.014567876 -0.046206318 -0.119556434 0.04314424 -0.062073924 0.081608586 0.038847223 0.0033578845
-0.0030091088 -0.026467657 -0.10004994 0.05163293 0.020613763 -0.10710585 -0.031037325 -0.032837287
-0.04899589 0.091495514 -0.06997591 -0.018830253 0.12771891 -0.1069264 -0.09798375 -0.12947825
0.06488746 -0.13448152 -0.0702068 -0.07376765 0.09024376 -0.12233669 -0.07941971 0.037323095
-0.10223649 -0.09666773 -0.001819833 -0.046597824 0.007342713 0.0017369769 -0.03756466 0.12624958
0.069111265 -0.09694651 0.045827292 -0.12604533 -0.106770284 0.014005157 -0.029002568 -0.05491505
0.031035682 -0.038996145 -0.047671195 0.11966941 0.025741497 0.09731575 0.10203189 -0.07753011
0.08147282 0.030114258 -0.03458608 -0.047895756 -0.050553504 -0.03722902 0.07530277 -0.031934943
-0.02552532 -0.07169563 -0.085435994 -0.10446515 -0.08733079 0.03817517 -0.05884205 -0.019891692
00000000: 3060 7a3d ba07 d3bd 9859 a7bd eea5 493c
00000010: 2cab ecbd b533 c2bd 8927 6b3d 7405 d0bd
00000020: 9118 04be f43b 04bd 2c11 9bbc 70c7 dabc
00000030: cbd2 cf3b 688d 03bc 548f ecba 7183 0bbc
00000040: 5e7d d6bd ea23 0bbe 8878 e2bd 48d9 ebbd
00000050: 0d71 ac3c cd9a 9f3d 0bf7 7cbc 90bc cb3d
00000060: c506 05bd b395 a9bd 4651 eebd 4912 6fbd
00000070: 3dcd fe3d 6504 2bbd 78c3 23bd 8e9a c63d
00000080: a511 cebd 4153 62bc 5cc5 963d a25a c83d
00000090: e1fc 8abd 2aee bd3d a610 ef3d a80c d93c
000000a0: 5883 a9bb 5316 1f3d 787b f1bd 5bcc c63c
000000b0: d0e7 bf3c 4dde bbbd 3c7a 4bbd 8d14 e5bd
000000c0: b1b6 9f3d 1c98 d73d 00d8 7a3d 8919 2abd
000000d0: 7720 94bd 91ea ccbc 0c41 4dbd dbc7 133d
000000e0: 04ce 08be 941c edbd fede 6dbd df07 e93d
000000f0: 4e80 96bd 2440 fabc fcc3 74bc e951 a53d
00000100: 5859 7a3d 5ea7 0fbd e8a4 96bd 0016 5ebd
00000110: 41c7 eb3d 8ce2 7bbc c732 a73d c4a1 7abd
00000120: 5334 f93c afa0 dbbd e0d9 943d 4735 8cbd
00000130: cac6 63bd 5879 d6bc 175b 283d 181b df3d
00000140: 1547 863d 0a26 9c3c 1798 733d 7431 f8bc
00000150: 765e 91bc 51df cabd 3822 333d 9ed7 90bc
00000160: c0c3 a4bc 73bf bf3d 2426 d83d 35a8 7abd
00000170: 24dc c2bd a14e 333d b333 8c3a 4519 9bbd
00000180: 6627 883d bd51 cd3c 2e5b f0bd d0e8 913c
00000190: a257 65bc 4ac8 19bd 5d54 b73b 7216 7e3c
000001a0: cff6 f33d c67d c03d a3b0 0abe e52a e3bd
000001b0: c99f ae3d b102 83bd 3f7a 50bd 1e85 0abe
000001c0: e1b8 763d 6096 ddbd 0213 aabd 1227 8c3d
000001d0: 6fe3 e43d 72f7 d8bd 04e3 7a3d 6fa8 2bba
000001e0: 4f51 b93c 88be 913d a58f a53d d0ce 8dbd
000001f0: a786 8f3d 831b 603d 419a 9fbc 276a 1cbd
00000200: 1241 b5bc b3e8 6fbd 0743 d03d 48bb c6bc
00000210: b3c4 91bd 3422 3b3d 2f9c 033e 4a5c df3d
00000220: 1e0f ac3d ed27 84bd f912 133d 3de0 703d
00000230: f9ea a2bb 7b95 b13d a6b8 683d c627 e9bc
00000240: 2604 dbbd 5429 9fbd d104 f9bd a02f 91bd
00000250: c193 e8bd d43c 8cbd 6e4e cb3d 4256 be3d
00000260: 1e58 9c3d 9783 433d 2bbf ddbd 1ca0 063e
00000270: 6c7c 4b3d 016e 8fbd 1c8a aabc ceb9 db3c
00000280: a329 393d 706f ffbc c1ef f53d 68a7 483d
00000290: e472 5ebd 98f9 ee3b d556 babd a4cf 9abd
000002a0: 1aae 6ebc d642 3dbd 01da f4bd 04b8 303d
000002b0: 3a41 7ebd 6722 a73d 441e 1f3d f40f 5c3b
000002c0: 7834 45bb b3d2 d8bc fce6 ccbd 0d7d 533d
000002d0: 32de a83c 505a dbbd fd41 febc 6480 06bd
000002e0: eaaf 48bd 0062 bb3d 884f 8fbd e741 9abc
000002f0: bfc8 023e 3afc dabd b4ab c8bd f295 04be
00000300: b7e3 843d 86b5 09be 95c8 8fbd 7e13 97bd
00000310: b8d1 b83d a98b fabd cda6 a2bd 1ae0 183d
00000320: 5d61 d1bd bbf9 c5bd 7687 eeba 5cdd 3ebd
00000330: 249b f03b 46ab e33a 67dd 19bd 9247 013e
00000340: 358a 8d3d e48b c6bd 66b5 3b3d 0712 01be
00000350: 61aa dabd e375 653c cb96 edbc 9aee 60bd
00000360: 8b3e fe3c 6cba 1fbd df42 43bd 3c15 f53d
00000370: d5df d23c 7b4d c73d 18f6 d03d 1bc8 9ebd
00000380: 39db a63d 2db2 f63c 22aa 0dbd 572e 44bd
00000390: 3111 4fbd 757d 18bd 5738 9a3d 37ce 02bd
000003a0: 7a1a d1bc 29d5 92bd 11f9 aebd d3f1 d5bd
000003b0: 7cda b2bd 915d 1c3d 5d04 71bd e7f3 a2bc
