tests/models/lstm_model_v3.pth (torch, 119204 bytes, 17 tensors)

lstm1.weight_ih_l0 f4 [80, 1]
00000000: 5bef 9fbd 949b fabc ef83 98bd c637 6c3d
00000010: 53b4 4a3d b879 303e 8321 97bd eb24 e0bb
00000020: 98fd 21be 1b5c 51be 8422 cbbc fa16 cc3d
00000030: 6e5c 3f3e c811 423d c0d7 253e 2e31 3a3e
00000040: cdd3 f2bd 2488 a6bd 627d 523e a2d5 5c3e
00000050: b7d8 f3bd 7082 eebc 567a 603e f04b d93d
00000060: 0578 48bd 5102 4bbe 4cc5 e13d 7d91 323e
00000070: 309d d13c 3b0d 753c 49e3 5c3e 4bd7 1f3e
00000080: 5a91 763d 90ce 143d ef3e febb 3ec2 2ebe
00000090: 983e e23d 9e8b 5abe dc5d 9dbd dc28 fbbc
000000a0: 4209 aa3d 14e4 e8bc ce00 0a3e ace6 21be
000000b0: 4714 11be 81b0 d53d 0ea4 fcbd 06ec 573e
000000c0: 7ad3 5dbe b487 fabd f902 6c3c 75a1 f4bd
000000d0: 0709 463e 8655 953d 9e1e da3c af9a 4d3e
000000e0: faec ffbd 8d6f 07be ad51 883d 086c 573e
000000f0: f3c6 b3bd 06a4 0c3d 239c 32be 0f8a 89bd
00000100: ab3c 9abd d822 14bd 5a3a 0fbe cfd3 62bd
00000110: a61a 9ebd 2b75 a6bd e398 f93d 240e 6dbb
00000120: 2bc3 56be 5abb 8dbd a70c 063e c995 e5bb
00000130: 2ec4 5dbd d32d 58be 480e 35be 3d9f 403c
-0.07809325 -0.030591764 -0.07447039 0.057670377 0.049488377 0.17233932 -0.07379439 -0.0068403385
-0.15819395 -0.20445292 -0.024796732 0.0996532 0.18687603 0.04738024 0.16195583 0.18182823
-0.11856804 -0.081314355 0.20555642 0.2156587 -0.119065695 -0.029114932 0.21921667 0.10610187
-0.048942585 -0.19825102 0.110239595 0.17438312 0.025587648 0.014956768 0.21571077 0.15609471
0.06019721 0.036329806 -0.007758967 -0.17066285 0.11047095 -0.21342322 -0.07683918 -0.030659132
0.08302547 -0.028429069 0.1347687 -0.1581065 -0.14167891 0.10434056 -0.123359784 0.2108613
-0.21662703 -0.122329146 0.014405006 -0.11944858 0.19339381 0.07291703 0.026625928 0.20078538
-0.124963716 -0.13226147 0.066562034 0.21037304 -0.08778181 0.034336112 -0.17442374 -0.06715786
-0.07531103 -0.036166042 -0.13987103 -0.055377778 -0.077199265 -0.08127817 0.12187364 -0.0036171759
-0.20972888 -0.069205 0.13090764 -0.007006381 -0.05414217 -0.2111123 -0.17681229 0.011756715

lstm1.weight_hh_l0 f4 [80, 20]
00000000: 0e48 53bd 9a23 2dbe 8395 18be 2c05 4c3e
00000010: df10 cbbd 9a71 20bd 2c86 103e 05b1 a03d
00000020: 6a38 333e 199d 403e ea6e b3bd d46b a53c
00000030: 07d6 023e 92fb 363d 87f7 c53d 7b26 62be
00000040: 8cd7 4e3e 3174 393e 26f2 4b3e cf24 4abd
00000050: 0091 cc3d 49d9 cd3d 1605 d8bc a60a 373e
00000060: 235a 273e 667f 5b3b e305 21be 5e67 bfbd
00000070: 6781 fc3d 311e 25be 57e3 12be 25fb aebd
00000080: ecaa 47bd 14da 2f3e 5d19 2c3e 0e26 adbb
00000090: 1806 7dbd 6a90 b93d 986e c73d 6bb8 473e
000000a0: 7bbd 13bd 5466 443e 5fa8 413e 230a 8abd
000000b0: 1016 c33d e2cf 0c3e 25e6 aabd e793 193e
000000c0: 07da d73d 8871 ebbd b05b 1c3e f23e 85bd
000000d0: 6942 083e 65e4 b7bc da9b 853c 62da e03d
000000e0: f1f4 a23c 65e0 60bd 2ca7 4f3e 1135 213e
000000f0: 9f0e 03bd 444b d2bd d660 81bd 44ef 5b3d
00000100: ad06 2c3e 4925 093e e6f0 ff3c 990f 44be
00000110: b13f d13c b590 89bd ecce bdbc d9c5 e6bd
00000120: 68c9 973c ff75 c53d c758 8d3d 8218 4c3d
00000130: b227 3e3d a93f f0bd 4325 33be 0acc 54be
00000140: e261 403d d0c3 14be 7403 55bb 6b4a f6bd
00000150: f79f 47be db5e b33d 03cf 933d 0887 fcbd
00000160: 50bd 4b3e 0927 d8bd 724d 833d b5ee 27bc
00000170: a53d 5f3e 6a5b 4abe c842 383e 7e07 11be
00000180: 1a5b 8b3d 311e 4f3e 76d6 e3bd 5334 36be
00000190: fde4 553d 08e0 0b3d e52d fa3d c354 2d3e
000001a0: f499 053e c933 63be ac6c cd3d bb14 2cbe
000001b0: 7a53 2cbc 638b 32bd 91e8 613d 1889 523e
000001c0: 8499 133d 4cd0 583d f26b 113e 04fb f93d
000001d0: 72be f1bd 6020 ad3c 6781 eebc 90f6 61be
000001e0: 416f 26be cd28 603e 3dfc 3abe 65b7 2b3e
000001f0: 5916 253e e733 9cbd 2de9 34be 1b4f ce3d
00000200: 7cf4 5abc 1326 12be c197 9cbd 7965 80bd
00000210: 303a f0bd e7d7 ae3c f09b 09bd 0037 54be
00000220: a2eb b5bd a8ba 5e3e f3b7 9abd e0ed 293d
00000230: c6e3 163e a339 c9bd 6f61 b53d 8f62 5ebe
00000240: 8ac1 fabd 6386 343e d818 773c 25e7 05be
00000250: 6bdb dbbd 6d1c d8bd 006b a4bb 1ad3 2c3e
00000260: f4d7 613e 60ee 5fbd 50ea a5bd f85c 3fbe
00000270: dc29 42be 9c3c 293e 306d 29be a92d 05be
00000280: 2f4c 62bd 533e 18be 566f e53d dab6 06be
00000290: 7555 95bd 1a53 403e 66e0 27be 5bf7 8abc
000002a0: 5cf9 c33d 18ed 84bd 761e a1bd 7127 66bd
000002b0: bc86 36bd 6733 36be 9c27 b0bd a46a 303d
000002c0: e8e0 253e 5b3e b03d e6bc e03d 77a1 24be
000002d0: 992a 1cbe 8045 1cbe 455e 2bbd ea5d d9bd
000002e0: 8f78 c03a 88ed cfbc d2aa 75bc 563d 1c3e
000002f0: 9ab6 033e 5aba 4ebe 86c6 48be 898d 553e
00000300: 0def 223d f26b 463d 7236 18be 0e86 613e
00000310: c557 163e aaaf 9c3d 1866 3cbe bf8f debd
00000320: c58d f0bd 0cd8 c3bd 62ab 82bd 6594 16be
00000330: c394 3cbe d183 a3bc 7f31 00be 7481 0d3d
00000340: 33b2 2fbd b289 edbd c4ea fb3c 52b5 4f3e
00000350: e319 5ebe 5057 c139 580c 4fbe b011 203e
00000360: 6f79 493d 4258 913d 752d 01be d547 2b3e
00000370: 639b c63d 4667 7cbd d1b1 dd3d 78fd 19be
00000380: afb8 90bc 98bd df3d 6675 183e 5cd7 3abe
00000390: a823 adbc 3855 e43d 1d62 7c3b 71da d73d
000003a0: e14c 9c3d af1b 2f3e d73f 073e a085 a8ba
000003b0: 59ae fa3d c527 adbd 87f3 43be 7b63 1d3e
000003c0: 2388 683b 0b99 0cbc 465e 48bd df9b db3d
000003d0: a667 b53d 3d5b 113e 5c4c 30bd 8194 3bbe
000003e0: 2dcb 9f3c 2ab6 da3d c7f7 9dbd b826 263e
000003f0: 519d 503e c289 4ebd 0812 533e 8fdf b73d
-0.05158239 -0.16908112 -0.14900784 0.19923848 -0.09915327 -0.03917084 0.14113683 0.07846264
0.17501989 0.18809928 -0.087613896 0.020193018 0.12776957 0.04467351 0.09666353 -0.22084992
0.20199412 0.1811073 0.19916591 -0.04935151 0.09988594 0.100512095 -0.026369613 0.17875156
0.16342978 0.0033492683 -0.15724902 -0.093458876 0.12329369 -0.16124798 -0.14344536 -0.08543996
-0.04874699 0.17173034 0.1680655 -0.0052840775 -0.06177339 0.09060748 0.09737891 0.19503944
-0.036069375 0.1917966 0.18911885 -0.06740215 0.095256925 0.13751176 -0.08344678 0.14997827
0.10539632 -0.11496264 0.15269351 -0.065061465 0.13306583 -0.022447774 0.016309667 0.10979153
0.019892188 -0.0549015 0.20278615 0.157429 -0.031996366 -0.10268262 -0.06317298 0.05369498
0.16799422 0.1339313 0.031242799 -0.19146575 0.025543066 -0.06717054 -0.023169957 -0.11268205
0.018528655 0.096416466 0.069016986 0.04982806 0.046424575 -0.11730892 -0.17494683 -0.2078096
0.04696835 -0.14527822 -0.003250328 -0.12025913 -0.19494615 0.087583266 0.07217219 -0.12330443
0.19896436 -0.1055432 0.06411256 -0.010249783 0.2180086 -0.19761434 0.17994225 -0.14163014
0.068044856 0.20226361 -0.111248896 -0.17793398 0.052220333 0.0341492 0.12215785 0.16926865
0.1304701 -0.22187723 0.10030493 -0.16804783 -0.010517949 -0.04358996 0.055153433 0.2056011
0.036035076 0.052933022 0.14201334 0.122060806 -0.11803903 0.021133602 -0.029114438 -0.22066712
-0.16253377 0.21890564 -0.18260284 0.16769178 0.16121806 -0.07627087 -0.17667075 0.10073682
-0.013363954 -0.14272337 -0.07646132 -0.062693544 -0.117298484 0.021343185 -0.03359598 -0.20724106
-0.08882834 0.21750891 -0.07554617 0.04148662 0.14735326 -0.098254465 0.088564746 -0.21717285
-0.12243946 0.1762939 0.015081607 -0.13076456 -0.1073521 -0.10552297 -0.005017638 0.16877404
0.22055036 -0.05467069 -0.08101332 -0.18687809 -0.1896128 0.16527027 -0.16545558 -0.13005699
-0.055248436 -0.14867525 0.11202876 -0.1315569 -0.0729169 0.187817 -0.16394195 -0.016963651
0.09569046 -0.064905345 -0.07867138 -0.056189958 -0.044562086 -0.17793046 -0.08601305 0.04307045
0.16199076 0.08605643 0.109735295 -0.16077219 -0.15250625 -0.15260887 -0.04183795 -0.10613616
0.0014684367 -0.025381818 -0.01499434 0.15257773 0.12862626 -0.20188275 -0.1960698 0.20854773
0.039778758 0.04844279 -0.14864519 0.22023794 0.14681919 0.07650693 -0.1839832 -0.10867261
-0.117457904 -0.09562692 -0.06380345 -0.14705046 -0.18416123 -0.019960316 -0.12518881 0.034547284
-0.042894553 -0.11598529 0.030751593 0.20284012 -0.21689562 0.00036876881 -0.20219553 0.15631747
0.049188074 0.07096912 -0.12614997 0.1672662 0.096976064 -0.061621927 0.108249314 -0.15038097
-0.017666189 0.10924834 0.14888534 -0.18246216 -0.021135166 0.11149067 0.0038510629 0.10539711
0.07631851 0.17100404 0.13207947 -0.0012857206 0.122402854 -0.08454851 -0.19135867 0.1536998
0.0035481534 -0.00858141 -0.04891803 0.107230894 0.0885766 0.14194961 -0.043041572 -0.18318368
0.019506061 0.10679276 -0.077132754 0.16225708 0.20372511 -0.050424345 0.20612347 0.08978187

lstm1.bias_ih_l0 f4 [80]
00000000: 3173 ef3d 73ce 3f3e 0b0f 9dbd 8d90 4e3e
00000010: 4c9f c1bd 02d5 fa3a 2785 27be 53b8 d4bd
00000020: e683 c8bd 240f 573e d6d9 14bd d237 b6bd
00000030: effb 483e 6daf 1fbe eb47 f9bc 1aba aa3d
00000040: 2aa0 153e af79 fd3d bd75 e4bd 809c abb9
00000050: 4ba5 23be 8c04 153e 9a6a fa3d e696 9a3d
00000060: c375 4fbe 4866 173d 1fc9 01be 835e 21bc
00000070: 345c 38be 369a 813b e40c aebd 1f5d 51be
00000080: d90d 4abe 2ac0 8fbd b5ec 2ebd 25e5 0dbe
00000090: bd92 3ebc 465d 313e e62e 363e ebe5 293d
000000a0: c309 d13d fe87 b23d 42e5 51be f143 56be
000000b0: 7622 073e 6897 e7bb 7cc6 a23c 69f1 923d
000000c0: 6853 2d3e 8f0e 18be 3c9d 69be 0d47 263e
000000d0: 671d c43d 4d53 57be a5d2 643e e80a f43d
000000e0: 5498 c9bc 6059 48be d83a 373e d19b c43d
000000f0: 1857 0bbe 349e 5a3d 86cd ddbc 3e55 5c3e
00000100: ccd4 94bd cb2f 94bd 6097 4f3e 20c0 843c
00000110: 0564 57be da46 3dbe cbc4 a33c f6d2 9a3a
00000120: ded0 5fbe 35e9 f93d dc2d 003e b54f 5d3c
00000130: b19e 583e b8aa e13c 5f3c d63d ac9e d9bd
0.11691893 0.18731098 -0.07668885 0.20172329 -0.094542116 0.0019136968 -0.16359387 -0.103867196
-0.09790783 0.2100187 -0.036340557 -0.08897366 0.19627355 -0.15594263 -0.030429801 0.08336277
0.14611879 0.12376725 -0.11155269 -0.00032732263 -0.15981023 0.14552516 0.12227364 0.07548313
-0.20259766 0.036962777 -0.12674378 -0.0098491935 -0.18003923 0.003955151 -0.084985524 -0.20445679
-0.19731845 -0.07019074 -0.04270621 -0.13856943 -0.011631665 0.17320737 0.17791328 0.041479032
0.1020694 0.08717345 -0.20497611 -0.20924355 0.1319674 -0.0070676096 0.019870035 0.071749516
0.16926348 -0.14849304 -0.22813886 0.16238041 0.095759206 -0.2102787 0.2234598 0.11916143
-0.024608769 -0.19565344 0.17893541 0.09600032 -0.13607442 0.05337353 -0.02707554 0.21516892
-0.0726715 -0.07235678 0.20272589 0.016204894 -0.21034248 -0.18484059 0.0199913 0.0011812139
-0.2185702 0.12202684 0.12517494 0.013507773 0.21154286 0.027547225 0.104607336 -0.106259674

lstm1.bias_hh_l0 f4 [80]
00000000: 7095 34be b60b c33d a195 063e 08b0 213e
00000010: 01c9 f2bc 5af7 10be 62b9 bfbd 9e50 003e
00000020: 316c 40be f1f4 0f3e 908e b4bd 58b1 993c
00000030: a306 e1bd d350 63bd 0154 1d3d 6d27 1abe
00000040: 1712 9dbd cb75 013e 7e9a 493e dcdf 89bc
00000050: 6d60 efbd 9017 0e3e 6f74 22bd 84d7 2bbe
00000060: 41d2 49bd ce9b 0a3e d453 063d 5e98 b8bd
00000070: 0661 283e 2138 043d d2c3 103e 0b83 fc3c
00000080: 3051 353e 44d7 8abd ca93 a4bd a18f 64be
00000090: 3800 4f3e 6cad 4fbe 4d1b 65be 98a4 c0bd
000000a0: 86bb 1e3c 436e b6bc 1507 a73d c9df c8bd
000000b0: c8a2 683d 90b9 473d 1023 ffbd 03e0 37be
000000c0: 5cea fbbd f0b1 aabb 9337 2ebe a961 c53b
000000d0: 78c7 683e ca71 243e d1cd 403d 4ffa 92bd
000000e0: a0d5 cc3d 1a99 2b3e cbf8 41be 4a6f 083d
000000f0: c63a dc3d 2e17 54be 0098 e9bd ee23 2e3e
00000100: e81c 84bd 1504 f53c 2066 68bd 6f5f b73d
00000110: 3199 54be c099 0b3e e8e6 88bd f96d 4fbe
00000120: 3dc1 52be be8b ea3d 2d1d bcbd 861c 03bd
00000130: 3382 2cbd b563 1ebe e0bb b7bd 9c43 2b3d
-0.17635131 0.09523718 0.13143016 0.15789807 -0.029636862 -0.14156857 -0.09361531 0.12530753
-0.18791272 0.14058281 -0.08816254 0.018761322 -0.10987594 -0.055497 0.03841019 -0.15054102
-0.07669466 0.1264259 0.1968784 -0.016830377 -0.11688314 0.13876176 -0.03966182 -0.16781431
-0.04927278 0.13535997 0.03279479 -0.09013437 0.16443262 0.03228009 0.141372 0.030824205
0.17706752 -0.0677934 -0.08036001 -0.22320415 0.20214927 -0.20280999 -0.22373696 -0.09406394
0.009688264 -0.022269374 0.08155648 -0.09808309 0.056795865 0.04876095 -0.124578595 -0.17956547
-0.1230056 -0.0052092 -0.17013387 0.006023605 0.22732341 0.16059032 0.04707128 -0.07176649
0.10001683 0.16757622 -0.18942563 0.03330926 0.10753398 -0.20711967 -0.11405945 0.17005894
-0.06450826 0.029909173 -0.05673802 0.089537494 -0.20761563 0.1363287 -0.06684667 -0.20256795
-0.20581527 0.11452435 -0.09185252 -0.032009624 -0.042116355 -0.15467723 -0.08971381 0.041812524

lstm2.weight_ih_l0 f4 [80, 20]
00000000: a46e c43d 8c0c 8f3d ecb2 ce3d 4459 9a3d
00000010: 8315 fb3d f5f0 343d 6dac debd 793c f73c
00000020: 598b 823d a9ec 39bd 87f5 493e 5ba0 10bd
00000030: 3827 ef3a 8828 cebd e62d e23b 10eb 333d
00000040: f42a 07be ae02 513e 92f2 de3d 4d5e d9bd
00000050: ca89 653d 21f2 6ebd 9981 493e 7381 023e
00000060: f0d6 f4bd b165 56be b730 15bc eae4 7e3d
00000070: 346f 043e 5b21 11be ca51 393e 6679 09be
00000080: 055d dcbd db88 4e3e f4dd 2cbe eac9 083e
00000090: 5a4b 0cbe d050 61bb 5ea7 1a3e 7b18 e8bd
000000a0: e6f1 323e c197 923c 55fd 2cbd 5a0d 3ebd
000000b0: 6558 71bd 34cb 64be 1166 f3bd 8668 5b3d
000000c0: 1834 463e 6e68 e2bd 0d88 bcbd c044 503e
000000d0: 1df2 153e c65c d9bd a8af 62be c257 b93d
000000e0: 5b25 253e e113 223b 67f0 dbbd 93e8 b5bd
000000f0: 652b b1bc 7ce8 3c3e ac97 0abe 11fb c8bc
00000100: ef78 1bbe 8b11 2c3e d9e8 603e 1be7 47be
00000110: 8ddd 10be 2e03 42bd 66ca 12be 62fa 623d
00000120: 1a48 12be 5a76 5f3e 3afe 2bbe 7e0c 5a3e
00000130: 90ef f7bd 0b44 3abe c4c9 13be f39b 6fbd
00000140: 1f1a 553e 94f5 cc3d 4677 15be 0a94 353d
00000150: 9a98 43bd c8b1 6f3c e968 da3d f84b 31be
00000160: a009 0e3e 8ea4 92bd e978 123e 8d30 cebd
00000170: 87fa 333c 68d5 af3d 8c7e 3f3e a6fd 2bbe
00000180: f478 7b3d 5e81 5ebe 47fa 36be fc53 c63d
00000190: 6f45 3b3e aa06 563e 5532 35be 810c 42be
000001a0: 5500 36be 98da 07bd 0694 133d d95f 69bc
000001b0: fe4c 2e3e 2f73 4c3e 8c2c a03d c38c dcbd
000001c0: 283d dabd 06c2 153e 6445 21bd 8d11 293e
000001d0: 0081 03bd 1dde fcbd a7a2 403e 1643 4b3d
000001e0: 9890 133e c864 bd3d be13 0a3e 51b1 82bd
000001f0: b9bd 993d 30f4 32bd 1e9d 54be 81aa f8bd
00000200: 5d82 913d 12a4 4bbe 2b57 40bd eaf1 4c3e
00000210: c09f ccbb a82b febd 5258 373e 1a29 1d3e
00000220: bff5 153d 4291 553e b578 c13d 1c89 18bd
00000230: 5ef5 aabc 3259 1e3e e16f 03bd 1ff9 0ebd
00000240: ef49 32be ee08 523e ddac fbba 1dda 23be
00000250: 5f4a 143d f0ae a3bd c11c 8f3d 2bdb 483e
00000260: e7fe 473e 4b9d 273e 9e7c bf3d 9ce9 b4bd
00000270: 6766 2b3e 0111 46be f0de 723d f5aa 22be
00000280: 0a36 973d 8eca aabd e5a5 0a3e fc3d bebd
00000290: 50f6 70bd 3b0a 36bd ac56 59be d713 3f3e
000002a0: ec36 4b3d eb41 cebd 2068 27be 418d 07be
000002b0: 82dd 58be 6e58 733a fdef 4bbe 7c4b 9c3d
000002c0: a159 1d3e c75f 34be 5361 d83d 3a59 15be
000002d0: 5745 aebd 6239 513e 5c88 103e 2e2f 4fbe
000002e0: 20f3 24bd 6ad0 a03c 8ee4 b03d 267f c5bd
000002f0: c0ca 1c3e ebb8 3b3e 14d5 253e f345 083e
00000300: c40c fd3d 679d b7bc 7d2c 403e 645a e13d
00000310: c4d3 843b 1efc 5abe eeeb 33be 9aeb 05bd
00000320: b91a 1fbe 7422 06be 76a9 0abe 5a6c 2a3e
00000330: 9330 a9bd a85c b23d 5419 ab3d f9a2 e5bd
00000340: 0374 47bd fb2e 613e fd8c 61be bac4 5a3e
00000350: b84b fa3d ded3 363e 434e 0dbd 46d0 143e
00000360: 3173 1c3e 6de3 473e 780f 043d ae04 f7bd
00000370: a0da ca3c 4b4a 84bc ff7e 5ebe a05e 05bc
00000380: 6952 483e fe2c 6f3c 524b 383e a14b 013d
00000390: ca3f 013e 1307 efbc db09 5e3e 50e9 34bd
000003a0: ed04 0ebe f248 453e 3bbb 333e c301 883c
000003b0: 4e2e 00be bb45 42be 507f 9abd c6a9 06be
000003c0: d3ea c6bd 2cd9 9abd 57bb dc3b 9303 debd
000003d0: e42e 5f3d e941 a93d 8bfc 073e 3336 7ebb
000003e0: 6519 623e ab31 ecbc afbb 563e 5ff9 cfbd
000003f0: 417c a23c a12b 25bd 893c 24be ca73 28be
0.095914155 0.06984815 0.100927204 0.07536557 0.122599624 0.044175107 -0.10872731 0.030180203
0.06374235 -0.045391712 0.19722567 -0.035309177 0.0018245941 -0.100663245 0.006902444 0.043925345
-0.13199979 0.20411178 0.1088611 -0.106136896 0.05603961 -0.05833638 0.19678344 0.12744693
-0.119550586 -0.2093723 -0.009105853 0.06223003 0.12933046 -0.1417288 0.18097606 -0.13425216
-0.107599296 0.20169394 -0.16881543 0.13358274 -0.1370062 -0.0034380443 0.15102908 -0.11332794
0.1747509 0.017894628 -0.042233784 -0.04639945 -0.05892219 -0.22343141 -0.11884702 0.05356648
0.1935581 -0.11055075 -0.09205637 0.20338726 0.1464314 -0.10613398 -0.2213732 0.090499416
0.16127531 0.0024731087 -0.107392125 -0.08882251 -0.021627137 0.18448061 -0.1353442 -0.02453378
-0.15182851 0.16803567 0.21963824 -0.19521753 -0.14147015 -0.047366314 -0.14335021 0.055414565
-0.14285317 0.21822491 -0.16796198 0.21293828 -0.1210624 -0.18190019 -0.14432436 -0.058498334
0.20810746 0.10007778 -0.1459628 0.044330634 -0.047752954 0.014629789 0.10664541 -0.17314136
0.13870859 -0.071602926 0.14303936 -0.10067854 0.010985023 0.08585626 0.18700618 -0.16795978
0.061394647 -0.21729037 -0.1786891 0.096839875 0.18288206 0.2090098 -0.17694981 -0.18950082
-0.17773564 -0.03316745 0.036029838 -0.014244043 0.17021558 0.19965814 0.07820997 -0.10769036
-0.10656196 0.14624795 -0.039372817 0.16510601 -0.032105446 -0.12347052 0.18812047 0.049624525
0.14410627 0.09247738 0.13484094 -0.06381477 0.0750689 -0.043689907 -0.2076306 -0.12141896
0.07104943 -0.19886807 -0.04695813 0.20014158 -0.0062446296 -0.124106705 0.17904785 0.1534771
0.036611315 0.20856193 0.09446851 -0.037240133 -0.020868953 0.15463713 -0.032089118 -0.03490555
-0.17411016 0.20511219 -0.0019201298 -0.16001172 0.03620374 -0.07992351 0.06987906 0.19614856
0.19530831 0.16368596 0.09349941 -0.0883362 0.16738282 -0.19342424 0.05929464 -0.15885527
0.07383354 -0.083394155 0.13539846 -0.09289166 -0.058828652 -0.04444335 -0.21224469 0.18659912
0.049612924 -0.100711666 -0.16348314 -0.13237478 -0.21178249 0.00092828914 -0.19915767 0.07631585
0.15366222 -0.17614661 0.10565438 -0.14584818 -0.08509319 0.20432046 0.14114517 -0.20232841
-0.040270925 0.01963063 0.08637343 -0.09643392 0.15311718 0.1833226 0.16194564 0.13307934
0.123559505 -0.022413922 0.18766971 0.11003569 0.0040535647 -0.21385238 -0.17570469 -0.03269539
-0.15537538 -0.1309908 -0.13541207 0.16642895 -0.08261218 0.08709079 0.0835444 -0.11212725
-0.04869462 0.21990578 -0.22026439 0.21364108 0.122214735 0.17854258 -0.034498464 0.14532575
0.15278317 0.1952035 0.032241315 -0.120614395 0.024762452 -0.016148707 -0.21728133 -0.008140236
0.19562687 0.014598129 0.17997482 0.031566266 0.1262199 -0.029178178 0.21683447 -0.044167817
-0.13869067 0.19266108 0.17551892 0.016602403 -0.12517664 -0.18971913 -0.07543814 -0.13150701
-0.09712758 -0.075609535 0.0067362 -0.108405255 0.054488078 0.082645245 0.13279931 -0.003878963
0.2208 -0.028832277 0.20970033 -0.10154986 0.01983464 -0.04032481 -0.16038717 -0.1645042

lstm2.weight_hh_l0 f4 [80, 20]
00000000: f28f 373e 341d d13d b3a0 3fbe 8a92 a53b
00000010: a209 ff3d e3fd 3bbe 00db 0cbe 5c04 4cbe
00000020: 6e67 b63c 4ff7 2fbe a496 39bd 3589 11be
00000030: b140 033e 1aff 80bd 286f bfbb d341 f8bc
00000040: 8250 03be d4a7 2abe 4075 01bc eacd 5f3e
00000050: 0097 23be d4c5 5b3c f5b5 003e 3775 88bd
00000060: 11ca eabd aa89 3f3e a332 35be 9743 1abe
00000070: d9a5 803d 82be 153e eb4b 073e 12a9 2fbe
00000080: d5a1 093e 22e1 24be 59ae 153e 884f 413e
00000090: 20d8 3bbe a4f0 a1bd 53bd a83d d095 79bd
000000a0: 002d 2d3e cfd9 c53d 243a 36be 3bc3 11be
000000b0: b58c c93d 66c9 633b ce19 2b3e e9f5 3c3d
000000c0: 76ad 01bd 2552 51be faa4 54be d2ef a83d
000000d0: 820d 903d 2079 3e3e 9e90 37be add3 5b3e
000000e0: fdca a6bb e192 063e 8ac7 563d 1cce 18bd
000000f0: df37 40be f82e 053e 1fdf c4bc 1314 2c3e
00000100: ff12 2c3d 6302 4e3c 3a12 f9bc 6ae7 62be
00000110: d0b8 f13c 96ed 91bd c2d3 b7bd 0847 0d3e
00000120: a87a 25be 9e3d e03d 676f 98bd 471d 92bd
00000130: 51f8 52be 011a e13d 3695 a2bc 21b5 2b3d
00000140: 8986 563e 57b3 133e 4251 2f3d 026d 103d
00000150: d6d3 313e ac13 33be bba0 4b3e cc45 f5bc
00000160: 126c db3d 978c 3e3e f17d 323e baf5 603e
00000170: d7cc f4bd 25a4 c5bd ccc3 59be 8436 533e
00000180: 52da 783d 28dd 1a3e b825 fcbd e523 473e
00000190: 0e36 57be ff7f de3d e409 223d 1d3d 5dbd
000001a0: ef1a cdbd 32f1 60be 136d 163e 16c2 20be
000001b0: 3ac4 25bd 9c8c 173e dca7 483e 09b5 37be
000001c0: f256 0f3e 2cc0 03be 01df 153e 2d19 3b3e
000001d0: 1598 bb3d 04e7 8cbd fcd1 55be 369a 703d
000001e0: 4852 27be 5b6c 04be 7dbb 45be 4cae ad3c
000001f0: 374a 563d cbff 12be be22 f63b 3ba4 da3d
00000200: 6078 3c3d 27e6 dd3c f024 903d fb76 cdbd
00000210: 7694 503e b8a8 223e 95a4 3c3e 0aee d0bd
00000220: babd 60bd a872 683e beb8 48be 683b 073e
00000230: 08c4 87bd 6c79 e93d 8662 d83d 8afd 5dbe
00000240: a49e 1f3e 3227 4fbe 4edb 18be b1ea 27be
00000250: afbb ec3c 2197 1f3e cd91 2b3e f6bc 193c
00000260: add7 c93d b1f4 ee3c 660b 1c3e 72f8 253e
00000270: cd60 23be 83cf fabd 0691 16be f736 5e3e
00000280: c26f 8f3d 8c2a d9bc 7300 57be aed0 f1bd
00000290: d99a 363e 3bd9 28be 1bba 1bbe da29 463e
000002a0: 0c37 273e 584d d83b 94c8 0dbc 3e20 263e
000002b0: acfe a2bd 72fb 24bc e73a 303e 5b3e 68bc
000002c0: 1628 f03c e2e7 5bbe 1eae 503e 29b1 f4bd
000002d0: d471 833d c458 2b3d d4ab 24be ce00 1a3e
000002e0: 8efd 1e3d fc49 313e d0c5 32be 66db 3f3e
000002f0: 476c 51be 49aa e53d 7318 1c3e d2d9 db3d
00000300: bbc2 483e 3ff4 2cbe a583 4d3e d5cf 5f3e
00000310: 8f18 e93d 0ecc 693e 9a4e 433e 8842 fb3c
00000320: a3ee e4bd 568e e8bd c46e 5abd 98d2 04be
00000330: 526a 0cbe caac a1bd 2f2e 9abc 874b 9ebd
00000340: 4c03 28be 9d02 643e 43cf 423e 0f06 f6bd
00000350: aaac 21be d4bf 5f3e 184a d2bd 9e51 bc3d
00000360: 3afd e13d 4691 c43d 711c d33d e934 a4bb
00000370: bc75 bebd 40e4 61be dfc1 d63d 87af 853d
00000380: 17ca 303e 2c48 b5bc 4aeb 483e 7b81 3f3e
00000390: 3e5d 053e a7a2 da3c 94e8 413e d996 4bbe
000003a0: b61f 2cbe bd4f 6d3d b001 63bd 4751 343e
000003b0: ce9e a6bd 87eb 8bbd e4d9 17be 1e15 563e
000003c0: 2882 2bbe 8b03 a33d 3317 f1bd edf9 423e
000003d0: 2524 e1bd 8286 573d 1314 37bd 9971 01bd
000003e0: e992 d2bd dfc7 5b3e 3ae2 0c3d c3d3 4b3e
000003f0: da59 d0bd 0732 0c3e 37f2 953d 9dc0 cfbd
0.17926005 0.10210648 -0.18713646 0.005052869 0.12453009 -0.18358569 -0.13755417 -0.19923538
0.022266116 -0.17184184 -0.045309678 -0.14212497 0.12817647 -0.06298657 -0.0058421083 -0.030304825
-0.1282368 -0.16665584 -0.00790149 0.21855894 -0.1597557 0.013413865 0.12569411 -0.06662982
-0.11464322 0.18704858 -0.17695098 -0.15064846 0.06281633 0.14623454 0.13212554 -0.17154339
0.1344064 -0.16101506 0.1461729 0.18877995 -0.18344164 -0.07907227 0.08239236 -0.060933888
0.16911697 0.09660684 -0.17795616 -0.14234631 0.09841291 0.0034757494 0.16709062 0.046132956
-0.031659566 -0.20441492 -0.20766059 0.08248867 0.070338264 0.18600893 -0.17926261 0.21467467
-0.005090116 0.13141967 0.05243639 -0.037305936 -0.18771313 0.13006198 -0.024032174 0.16804533
0.042010304 0.012573811 -0.030404199 -0.2215859 0.02950707 -0.07125394 -0.089759365 0.13796628
-0.16160071 0.109492525 -0.07443123 -0.071344905 -0.20602538 0.10991288 -0.01984654 0.041920785
0.20949759 0.14423881 0.042802103 0.035260208 0.17365965 -0.17487973 0.19885533 -0.029940508
0.10713972 0.18608318 0.17430855 0.21968737 -0.119531326 -0.09650449 -0.21266097 0.20626265
0.06075508 0.15123427 -0.12311882 0.19447286 -0.21016714 0.10864257 0.039560214 -0.05401336
-0.10014903 -0.21967009 0.14690046 -0.15699038 -0.04047034 0.14799732 0.19595283 -0.17940153
0.13998011 -0.12866277 0.1463585 0.18271323 0.09159867 -0.0688 -0.20880884 0.058740817
-0.16339982 -0.1293196 -0.19309802 0.021201275 0.05231687 -0.1435539 0.007511466 0.10675856
0.046013236 0.027087284 0.07038295 -0.10032459 0.20369133 0.15884674 0.18422158 -0.10201652
-0.054868437 0.22699988 -0.19601724 0.13206255 -0.06629187 0.114001125 0.10565667 -0.21678749
0.1558786 -0.20229796 -0.14927408 -0.16398121 0.028898088 0.15584995 0.16754837 0.009383431
0.0985559 0.029169412 0.15238723 0.16208056 -0.15954895 -0.12246611 -0.1470376 0.21700655
0.07003738 -0.026509546 -0.20996265 -0.118073806 0.17832507 -0.16489117 -0.15207712 0.19351903
0.16329592 0.006601017 -0.008653779 0.16223237 -0.07958731 -0.010069715 0.1720997 -0.014175023
0.02931599 -0.21475175 0.2037892 -0.11947853 0.06418195 0.0418327 -0.16081172 0.1503937
0.038816027 0.17313379 -0.17458272 0.18736038 -0.20451461 0.1121412 0.15243702 0.10734905
0.19605534 -0.16890047 0.2006975 0.21856625 0.11381637 0.22831747 0.19072953 0.030671373
-0.11178329 -0.113552734 -0.05332829 -0.1297096 -0.13712433 -0.07894285 -0.01882085 -0.077292494
-0.16407508 0.22266622 0.19024377 -0.12012874 -0.15788522 0.2185052 -0.102680385 0.09195255
0.11034627 0.09598021 0.10308159 -0.00501119 -0.092998 -0.22059727 0.10486197 0.0652762
0.17264591 -0.02212914 0.19621006 0.18701737 0.1302385 0.026688887 0.18936378 -0.19881763
-0.16808972 0.057937372 -0.05542153 0.1760913 -0.08135758 -0.06832033 -0.14829212 0.20906493
-0.1674887 0.0795966 -0.11772003 0.19040652 -0.10993222 0.05261851 -0.04469688 -0.031602476
-0.10281927 0.21462964 0.034395434 0.19905 -0.10173388 0.13690959 0.073215894 -0.1014416

lstm2.bias_ih_l0 f4 [80]
00000000: 4047 dfbd d1b5 983b aa2a 293e fa24 bdbc
00000010: 4999 5f3e 7727 c43d 1b7e 9f3d 4754 c6bd
00000020: 9c81 66bd ae87 b93d 5226 0b3e 7911 553e
00000030: f973 7f3d 3809 f3bd 3a83 2dbd feaf 72bd
00000040: 76a2 b33d 5672 393d 01f4 48be af12 55be
00000050: 354e 013e 7200 de3d 2d88 37be 707a 583e
00000060: 5e84 62bd 7dc0 1b3e dac9 dfbd 600c b43d
00000070: 3f55 34be ecb1 71bd a4b5 953d 7601 48be
00000080: 8c2b eebd 3e46 bbbc 10fb 05be 6c32 b43c
00000090: b41a 113e 6ef6 4d3e 192b e7bb a636 953d
000000a0: a488 0b3e 9db7 333e fa06 873d 064a 51be
000000b0: 631f 11be f3ae 43bd 1ed5 62be 0c30 433e
000000c0: 8e11 bbbd f087 d43d 1cd3 1c3e 28b8 8fbd
000000d0: caf5 aabc 212c cebd 3568 a93d fd6b b5bc
000000e0: 8252 36bd 4348 323e 8ec0 1f3e ccb2 c03d
000000f0: 0ac4 20be ca83 56bd def1 f43c d954 4e3e
00000100: 346f 18be b2e4 80bd 0ed2 e0bd 23a9 4abe
00000110: 0c2a 67be bbd9 d1bd 1406 c4bd 9398 183e
00000120: e2d4 e0b9 8c21 353e da9e debd 7d44 d4bd
00000130: d75d 5a3e 1827 83bc cd6a 28be 0b36 bcbd
-0.10902262 0.004660346 0.16520181 -0.02308892 0.21835817 0.0957784 0.077877246 -0.096840434
-0.05627595 0.09059082 0.13588837 0.20807447 0.06236646 -0.11866993 -0.042361476 -0.05924987
0.08771221 0.045275055 -0.1962433 -0.20807908 0.1262749 0.10839929 -0.1792304 0.21140456
-0.055302016 0.15210147 -0.10927172 0.08791423 -0.17610644 -0.05900757 0.07310036 -0.19531807
-0.116294 -0.022860643 -0.13084054 0.0219967 0.14170343 0.20113537 -0.007054698 0.07285814
0.13626343 0.17550512 0.065931275 -0.20438394 -0.1417213 -0.047774266 -0.2215161 0.19061297
-0.09134208 0.103774905 0.15314907 -0.07017547 -0.020869154 -0.10067011 0.08271829 -0.02214622
-0.04451228 0.17410378 0.15600798 0.09409103 -0.15699783 -0.052371778 0.029900488 0.20149554
-0.1488617 -0.0629362 -0.10977565 -0.19791083 -0.22574633 -0.10246607 -0.09571472 0.14901952
-0.0004288322 0.17688578 -0.10870142 -0.103646256 0.2132486 -0.016009852 -0.16446991 -0.091899954

lstm2.bias_hh_l0 f4 [80]
00000000: 48f4 23be e33e b83d 3f58 183d c835 28be
00000010: ed63 303e 10d8 10be 75e8 5e3e fd29 983d
00000020: 4d05 1ebe 8908 bc3d b5d0 89bd 10ab 53be
00000030: 9336 21be c722 2fbe 39fc a9bd acdd 0dbe
00000040: b398 1cbe 9715 0cbe dfe5 ca3b cd05 afbd
00000050: 31a0 b83d f07e 54be 3476 d7bc 4f34 e9bd
00000060: 6738 e13d 8a6a 353e f694 213e d12c 233e
00000070: d71d 4abe f2c3 1fbe acd4 dfbd c4b0 b93d
00000080: 23d9 3c3e 532c 9f3d 9650 6cbd 6808 3e3e
00000090: 0bdc 043e 939a 2fbd a27d 163e f660 45be
000000a0: 22b1 e7bd 2ed4 373e 3793 3a3e 68dd 233e
000000b0: 20a7 a23d 2244 c23d 0364 2dbe 9eed aa3d
000000c0: bf8d 453e 12cb 573e b840 5dbe 0800 db3d
000000d0: 5eab 53bd 8972 5e3d 8ec2 803c df95 223e
000000e0: a717 ca3d 2aa2 0f3e b9f6 d63d 7ab5 0a3d
000000f0: 70cd 323e 03fd f63d ca2d 503d fc27 68be
00000100: 59c2 c83d 93d7 47bc 7731 2f3e e85f 643c
00000110: 5c61 bbbd 3566 d6bd 3b4f 5ebe 0610 163e
00000120: 9d97 92bd a7ef 0dbe ab49 27be 54ba 07bb
00000130: 12a1 013e 081b 4a3e eff2 aabd 7dab 4f3e
-0.16011155 0.0899637 0.037193533 -0.16426766 0.17225619 -0.14144921 0.21768363 0.07429884
-0.1543171 0.091813155 -0.06729261 -0.20670724 -0.15743475 -0.1710311 -0.08300061 -0.13854092
-0.15292625 -0.13680111 0.0061919536 -0.08546028 0.09014929 -0.20751548 -0.02630148 -0.1138693
0.10997086 0.17716423 0.1577948 0.15935065 -0.19737945 -0.15602091 -0.10929236 0.090669185
0.18442206 0.07772126 -0.05769404 0.18557894 0.12974565 -0.042872023 0.14696363 -0.19275269
-0.11313082 0.17952034 0.1822022 0.16002429 0.07942033 0.094856516 -0.16932683 0.08346103
0.19292353 0.21073559 -0.2160672 0.10693365 -0.0516771 0.054308448 0.01571777 0.15877484
0.098677926 0.14026704 0.10496277 0.033864476 0.1746118 0.12059977 0.050824918 -0.22671503
0.09802694 -0.012197393 0.17108713 0.013938881 -0.09149429 -0.10468713 -0.21709912 0.1465455
-0.07157824 -0.13860951 -0.16336696 -0.0020710425 0.126591 0.19736874 -0.08347117 0.20280261

lstm3.weight_ih_l0 f4 [80, 20]
00000000: bf1b 2bbe 0b44 5f3e 3d68 9fbd 85c1 603d
00000010: 29af 623e 42be 29be 25cf 21bc b2d2 eb3c
00000020: 17ef 1fbe 2ef0 333e 72a4 b3bd 2e0b 1b3d
00000030: 6154 f4bd 421b f23d ed3d ea3d 6db6 043d
00000040: e26e 533e d2fb 3e3e e556 c83d 39cb 523d
00000050: a0a5 29be 9961 463e e869 623d 1107 c93d
00000060: b5b3 1b3e 8082 1abe dbb7 1ebd 6aa6 2ebe
00000070: 2242 473e 630f 54bc 16c8 03be 1e5a 1abe
00000080: 86fd b7bd 864c 683e 31d0 abbd 6439 a63d
00000090: 66f8 513e 0df9 34be 69e4 c6bc 4328 3a3e
000000a0: 40d0 03bd 329f 9dbd 4bb3 a93c a8b6 d2ba
000000b0: a88c f1bd a5c0 393b cfb4 3abe d202 a0bd
000000c0: 072f c63d 1921 d23d e8c3 153e a80f 243e
000000d0: 7da5 b83d d421 903d 3819 da3d 39fc 78bd
000000e0: 0b95 733d bd29 0e3e 5e4f 93bd 1dc5 3ebd
000000f0: 7cc1 b13d 407a 8bb7 8314 a73d 17fd 9a3c
00000100: 0217 433e 65f9 15be 3432 f8bd 101e 67be
00000110: 3c39 5abd 1247 5b3e b04d 3f3e 9ac1 56be
00000120: fa99 08be 5f28 41be 0eb0 f2bd 67bb 5dbe
00000130: 70f0 63be e20e 103d 4049 2d3e 22e0 85bd
00000140: c3d6 4b3e 84a0 bd3d cefa 3ebe 8667 b7bd
00000150: 07fc 4bbe 07ab 353e 8333 fc3d 5959 2f3d
00000160: 784f 1ebe 2272 18be b283 cc3d e6fb 493e
00000170: dbee ebbd e55b 36be 0c4d 3f3e 9e19 2e3e
00000180: 194c 1a3d 9c60 883d 9ce8 5ebe 9e83 26be
00000190: 154f 473e d0dd 413e 1d11 bb3c 360d d93d
000001a0: fa7c 3cbe 165f 393b cdc1 0c3e 549d 8bbb
000001b0: 0cb8 01be 0566 92bd 5fbb 0fbe 9d4a 42be
000001c0: 0b31 e7bc 3d44 033e 15b9 8d3d 2c41 7ebd
000001d0: 42a9 41be b717 5cbe aa9c d63c 81a2 c6bd
000001e0: 8422 583e ee15 3ebe 04be 4abe ec69 843c
000001f0: d0e5 f03d e3ab af3d 4707 2c3e 7a23 233e
00000200: a97f ae3d e28c a63c 9aff 14be 3920 2d3e
00000210: 1575 613e a816 bebd 112b b53c 3b9e 5fbe
00000220: 7a40 f2bc 164e c1bd bc12 58bd eaa7 0abe
00000230: 602c f3bd 8374 53be fe7d 0c3d 5e2c a7bd
00000240: 3a75 bfbd a7f0 603c 0eda b43d 673a d8bd
00000250: 5c19 3f3c 4124 443e c8be f53d 482f 44bd
00000260: 5f7e 18be 59b0 123d 9211 0bbe 055a 383e
00000270: 6687 293e 5a2b 533e 9ef5 e53d 2b79 603e
00000280: d7eb 933d 5dee 2ebd bae9 323e f1e5 e7bd
00000290: 7d94 0f3e 3396 b0bd da64 d73c 364b 953d
000002a0: d6bd 653e 8eef fc3c 2c0a 923c d89e ddbc
000002b0: 99c8 28be 4088 debd df7e c33d 72f5 123c
000002c0: ca5c 8dbd ebf6 653e 837b 35bd 1bfd 283e
000002d0: 2634 153c 6b41 353e 1b42 a3bb 2fe0 193e
000002e0: 91f6 b6bd d22e 02bd 40af 89bd f05e 373e
000002f0: 03b3 313e 0fe9 573d 4fc1 383e 37bb bcbd
00000300: e605 803c 956a f53d b88c 303d d437 1abe
00000310: bef6 5b3e 673f 39be bb07 2ebd 838b 4bbe
00000320: da55 2d3c ac43 e6bd 54e1 203e 298c d5bc
00000330: 2967 debd 4f24 dbbd 9db6 31be b7f8 56bd
00000340: 1f18 10be 3866 32be be45 053e 6b2d e53c
00000350: e943 d23d 20e0 febd ed2d f9bd 04fa b83d
00000360: c329 a83d 13c0 b93d 40ea 563e fc06 5ebe
00000370: 54ae e93d 6b75 393e 1445 203e d5e5 d03b
00000380: 76c9 8e3c 08d6 7dbd d25a bd3d a981 eb3d
00000390: e588 8e3c 49a0 cb3d e7e5 1fbe 9e4c 69be
000003a0: fcc9 24be 0224 c2bd c8b8 b7bd b93c ba3c
000003b0: 99e6 4cbe 45a7 963d 1ed8 ce3d 1740 533e
000003c0: 5fde 5d3e e14e 40be 0256 ffbd 8718 ec3d
000003d0: a33b 36be 7ea9 b2bd 19b3 b33c 2413 e33d
000003e0: bcca 333d 4e42 553d fbcb 2dbe 42aa 0ebe
000003f0: 0b6f 71bd 794b 1cbe 3fd9 ecbd f413 f53c
-0.16709803 0.218033 -0.07783554 0.054872055 0.22137131 -0.16576484 -0.009876047 0.02878699
-0.1561855 0.1757209 -0.087716 0.03785246 -0.119301565 0.11821605 0.11437593 0.032400537
0.20647767 0.1865075 0.09782199 0.05146334 -0.16567087 0.19373168 0.05527678 0.09815801
0.15205272 -0.15088844 -0.038749557 -0.1705567 0.19458821 -0.012943122 -0.12869295 -0.1507344
-0.08983903 0.22685441 -0.08389319 0.08116415 0.20504913 -0.1767313 -0.024278836 0.18179421
-0.032181025 -0.0769638 0.020715376 -0.0016076164 -0.11794406 0.0028343585 -0.18233036 -0.07813038
0.096769385 0.10260219 0.14625514 0.16021597 0.090159394 0.07037702 0.10649341 -0.060787413
0.05946831 0.1388311 -0.071928725 -0.0465747 0.08679482 -1.6627018e-05 0.08158209 0.01891951
0.19051746 -0.14645918 -0.121189505 -0.22570062 -0.05327724 0.2141383 0.18681979 -0.2097229
-0.13339987 -0.18863057 -0.11849986 -0.2165352 -0.22259688 0.035170443 0.16922474 -0.065368906
0.19906144 0.092591316 -0.18650362 -0.089552924 -0.1992036 0.17741023 0.123145126 0.042809818
-0.15460002 -0.14887288 0.099860564 0.19724998 -0.115201674 -0.17808492 0.18681735 0.1700196
0.03767023 0.06659052 -0.21768421 -0.16261145 0.19463761 0.18932271 0.022835309 0.10598223
-0.1840705 0.0028285435 0.13745804 -0.0042606983 -0.12667865 -0.07148365 -0.1403632 -0.18973775
-0.028221628 0.12819 0.06920067 -0.06207387 -0.18912223 -0.21493421 0.02619775 -0.09698964
0.21106917 -0.18563053 -0.19799048 0.016163789 0.11762583 0.08577707 0.16799651 0.15931502
0.08520443 0.02033085 -0.1455063 0.16906823 0.2201732 -0.09281665 0.022115262 -0.21837704
-0.02957176 -0.09438722 -0.05275224 -0.13540617 -0.11873698 -0.20649914 0.034299843 -0.08162759
-0.09348531 0.013729251 0.08830653 -0.10558014 0.011663761 0.19154455 0.11999279 -0.047896653
-0.14891957 0.03581271 -0.13580921 0.1800309 0.16555557 0.20622006 0.112284884 0.21921222
0.07222717 -0.04270779 0.17471972 -0.11323155 0.14021488 -0.08622398 0.026293207 0.07289736
0.22435698 0.030875947 0.017827116 -0.027053282 -0.16482772 -0.108658314 0.09545683 0.008969652
-0.06902464 0.22457473 -0.044307243 0.16502802 0.009106671 0.17700736 -0.0049822456 0.15026926
-0.089337476 -0.031782933 -0.067228794 0.1790731 0.17353444 0.052712496 0.18042491 -0.09215396
0.015627813 0.119832195 0.04310295 -0.15060359 0.21480843 -0.18090592 -0.04248784 -0.19877438
0.010579551 -0.11243376 0.15710956 -0.02606781 -0.1085952 -0.10700285 -0.17354818 -0.052483287
-0.14071701 -0.17421806 0.13014886 0.027975759 0.10266859 -0.12445092 -0.12166963 0.09032062
0.082110904 0.090698384 0.20987797 -0.21682352 0.114102036 0.18111198 0.15651351 0.0063750544
0.017430048 -0.061971694 0.09245838 0.1149934 0.01739926 0.09942681 -0.15615045 -0.22783133
-0.16092676 -0.09479524 -0.08970791 0.022734033 -0.20009841 0.07356123 0.10099815 0.20629917
0.21666859 -0.1878009 -0.124675766 0.11528116 -0.17796187 -0.08723734 0.021935986 0.11087635
0.043894514 0.052065186 -0.16972344 -0.13932136 -0.05894379 -0.15263166 -0.11564874 0.029916741

lstm3.weight_hh_l0 f4 [80, 20]
00000000: fdfa 2c3e b7f7 2b3e ec20 303d 054d 033e
00000010: 5f3b 903d e821 df3c ebde b2bd ec61 433e
00000020: 4d5d 673e 88fa 5abd f767 403e b8b7 893d
00000030: 773a c0bc b0db 2a3e b16a 623e 2236 aa3d
00000040: e9a3 1dbc 25a4 ff3d 9230 2ebe e474 68bd
00000050: 17a2 cf3d a71e e9bc 5325 a5bb 3356 403e
00000060: 1bb5 153e 1d3e 393e 7a5a 8bbc 3ff2 84bd
00000070: 91ff 8d3c 5e12 b0bc fab1 ffbd 5c7d 0abe
00000080: 57df 1b3d 4117 4b3e 22f9 393e 4987 d83d
00000090: 31d2 cdbd 63bc e1bd 4aa0 2ebe 8a5b 1a3e
000000a0: 6e57 433e 50a7 9ebd 76fb 633e 8145 4f3d
000000b0: 6e68 8f3c cca0 9c3d a40b 14bd d300 c73d
000000c0: aef2 34be e7fe a03d d707 68bc 9392 433e
000000d0: 2d0f 913c 021b 5d3e 610a fdbd c26e 99bc
000000e0: 9379 583d 3ca6 8b3d b0a4 af3d a164 fdbd
000000f0: 0d60 2ebe 2f40 90bd be45 30be 67fa 27be
00000100: f5d0 313e ff64 5f3e f48e ab3d 5d70 563d
00000110: 25d4 24be a2a4 bdbd e848 08be 308c 4fbe
00000120: af50 5d3e 4801 2e3d d2ec 1abe 51f0 023e
00000130: 4d72 033e 11a4 28bd ea35 893d d508 1cbe
00000140: 4aed 3d3e 4e86 223e 78ac 393d edc1 bfbd
00000150: c073 abbd 0a86 ee3c 62e3 e33d e12f aabc
00000160: dae9 643d 7197 c4bd 6d94 16bd 7609 233d
00000170: 5894 143e 9ded bcbc ef4f a13d 8e06 14bc
00000180: d327 28bd bac3 4fbd 127f 15be 7f48 f63d
00000190: f4eb 873d a102 2abd 4afc c93d 205a 1a3e
000001a0: 33a9 523e 0015 59be 7be1 47bd 0c5c 53be
000001b0: 855d babd 94ed b4bd 7a6a 0f3e d7a1 3ebc
000001c0: 9540 0e3e e7bb fc3d 1d3b 0ebe 9952 34be
000001d0: 3149 02bd 6765 4b3e e74b 953d 5696 523e
000001e0: a3c2 24be 17b6 05be 0c93 edbb 03b0 a8bd
000001f0: eae3 08bd 4604 023e a688 14be b2b2 ccbd
00000200: 9ec9 853d 9f6e c6bd 1aaa 9bbd dc89 063e
00000210: e76b 30bd 609c e7bd daf1 0bbe 92e1 b3bd
00000220: a9f3 413e b9d1 2cbe 2dfe 203e fc9b f3bd
00000230: e6a2 59be 3f48 bd3d ba29 aebd a003 10be
00000240: 8414 07be 263b 453e ebdc 96bd 26be 3e3e
00000250: 34e3 c43d 6696 72bd ac59 153e 6819 acbd
00000260: 6209 9a3b 9a5d 29be bf4e eebd 9bb2 633e
00000270: 8be7 ecbd b65d 213e 277e 873d e09a af3d
00000280: 5d19 093d d34a 0a3e f005 dc3c 94bd adbd
00000290: b0fe 00be da62 2bbe b5b6 f7bd 332e 453e
000002a0: 00b5 5d3c 8be0 36be 94d8 73bd a61e efbd
000002b0: 5320 2fbd 6df7 7fbd f9f8 423d f770 943d
000002c0: 6b0c c9bc 24c2 e7bd e5d8 1ebe c2c7 2f3d
000002d0: 4b66 8d3d 31e1 523e bbab 80bd 3391 10be
000002e0: a9c0 5abe 0044 0ebd 5fbb 6b3d e37e b2bd
000002f0: 7029 3d3d d985 4a3e e31c 613e 440f 58bd
00000300: c011 c93c 757a 3f3e 6732 213e f542 a73c
00000310: 8dc9 233e 9bf9 1bbe 077f 553e 714c a9bd
00000320: 13b6 b63d 1a76 b33d 9396 2ebe f58d 8d3d
00000330: 421c c63d 2964 e13d 20c3 59be 130d 0d3e
00000340: f04e 843d f589 09be dad2 d73d 4f76 0cbe
00000350: f170 2ebe cbfe d3bd b7a8 4d3d 8921 b73d
00000360: 73bb 343d 8233 4a3d 782f ac3d bcef 3bbe
00000370: b114 9a3c 3bde 5f3e c6b1 de3d 06fb 90bc
00000380: 7a9a a1bd d8e1 2f3e 0dc0 f1bd 5700 353e
00000390: 4c1f 67bd 10df bebd d225 8e3d f75d e03d
000003a0: b7ca 59bd 15f9 b4bd 9806 19be d444 5d3e
000003b0: 93e9 a53c 31d3 cb3d 7e96 313e 6de4 3bbc
000003c0: 5f06 4d3e f865 ac3d 9f32 b83d 3282 1fbe
000003d0: 51ed dbbd 38d6 52bd a372 363e 6f8e 5f3e
000003e0: 34f1 d6bd bde5 f43c 6cbd fa3d 13dc 953d
000003f0: a89b 113e 35fb 9cbd d4eb 433c f473 13be
0.1689262 0.16793714 0.043000147 0.1282235 0.07042574 0.027237847 -0.087339245 0.19080323
0.22594185 -0.05346158 0.1878966 0.06724495 -0.023465378 0.16685367 0.22111012 0.08311106
-0.009621599 0.1248248 -0.17010716 -0.0567521 0.10138338 -0.028456999 -0.00503985 0.18782882
0.14619868 0.180901 -0.017010916 -0.06491517 0.017333778 -0.021493133 -0.12485118 -0.13524383
0.03805479 0.1983309 0.18161443 0.105726786 -0.100498565 -0.1102226 -0.17053333 0.15073982
0.1907632 -0.07746756 0.22263893 0.050603393 0.01750585 0.07647857 -0.036143914 0.09716954
-0.176707 0.07861119 -0.014162025 0.19098882 0.017707432 0.21592334 -0.12355495 -0.018729571
0.052850317 0.06818816 0.085763335 -0.12372709 -0.17028828 -0.07043492 -0.17214105 -0.16404115
0.17364867 0.2181587 0.083768755 0.05235325 -0.16096552 -0.09259917 -0.13309062 -0.20268321
0.2161281 0.04248169 -0.15129402 0.12786986 0.12836571 -0.04117209 0.066997364 -0.15237744
0.1854755 0.15871546 0.045330495 -0.0936316 -0.08371687 0.02911665 0.11127354 -0.020774784
0.05588708 -0.09599198 -0.036762644 0.039803945 0.14509714 -0.023062522 0.07876574 -0.009034766
-0.041053604 -0.05072377 -0.14599255 0.12025546 0.06636801 -0.041506413 0.098625734 0.15073442
0.20572357 -0.21199417 -0.04879902 -0.20640582 -0.09099869 -0.08834377 0.14005461 -0.011635265
0.13891824 0.12340527 -0.13889737 -0.17609634 -0.031808082 0.198629 0.07289868 0.20565161
-0.16089873 -0.13057743 -0.0072501954 -0.082366966 -0.03342048 0.12696943 -0.14505252 -0.09995021
0.06532596 -0.09689068 -0.07600804 0.13138527 -0.043071654 -0.11309123 -0.13666478 -0.087832585
0.18940605 -0.16876878 0.1572196 -0.11894986 -0.21253547 0.092422955 -0.085040525 -0.14063883
-0.1319142 0.19260845 -0.073663555 0.18627223 0.09613648 -0.059225462 0.14584988 -0.08403283
0.0047008255 -0.16539612 -0.116361134 0.22236101 -0.11567601 0.15758404 0.066158585 0.08574462
0.033471454 0.13505106 0.0268583 -0.08483425 -0.12597156 -0.16736928 -0.120953955 0.19255905
0.013531923 -0.17859094 -0.059532717 -0.116757676 -0.042755436 -0.062491823 0.04760072 0.07248109
-0.024542054 -0.11316326 -0.15512426 0.042915113 0.069042765 0.20593716 -0.06282755 -0.14117889
-0.21362557 -0.03473282 0.057551738 -0.08715608 0.046182096 0.19777621 0.21983676 -0.052748933
0.024544597 0.18699057 0.15741883 0.02041767 0.15994854 -0.15231936 0.20849238 -0.08266533
0.08921447 0.087627605 -0.17049627 0.06911842 0.096733585 0.11005432 -0.2126584 0.13774519
0.06460369 -0.13431533 0.105382636 -0.13717006 -0.17035271 -0.10351332 0.050209727 0.08941943
0.044124078 0.049365528 0.084074914 -0.1835317 0.018808695 0.21862118 0.10873751 -0.017697822
-0.07890792 0.17175996 -0.11804209 0.17675911 -0.05642633 -0.093198895 0.069408074 0.10955422
-0.05317184 -0.08836571 -0.14943922 0.21608287 0.020252978 0.09952391 0.17342564 -0.011468035
0.20021962 0.084178865 0.0899403 -0.1557701 -0.10738624 -0.051473826 0.17817168 0.21831678
-0.104952246 0.029894704 0.122431606 0.073173665 0.14219534 -0.076651014 0.011958081 -0.14399701

lstm3.bias_ih_l0 f4 [80]
00000000: 0f48 253e 712c 2bbe becc 403e 94ab 283e
00000010: fb12 3cbe d06b f5bd ca15 3cbc 55d1 3e3e
00000020: 60e6 38bd 355c e0bd ed83 233e 352d 583e
00000030: 4277 3b3c c58d f0bd 25bd 57bc ac25 1fbe
00000040: 138e 0fbe 26af b0bd 6ca1 5c3e 9176 e23d
00000050: 5940 603d 80bd 1d3e 65f4 4cbd b2a3 e43d
00000060: eacc cc3c 2649 f3bb 248b b5bd bdc1 2b3e
00000070: 075e e83d 2ea7 79bd 9915 8abd d156 233e
00000080: 9a79 dc3d b1ca 83bd 617b 61be 754a 0b3e
00000090: fb4a 243e e5e7 59be d6d0 1ebc 3993 693e
000000a0: 67f1 07be 5383 44be a1f7 5f3e 85fe b03d
000000b0: 8075 09be 1f31 4e3e 128c 40bd 9b00 c4bd
000000c0: 78bb 0b3a cc2d 34be 398e 123d 2460 4f3e
000000d0: da75 20be f4f0 c1bd 1b4e 133c 4e30 c2bd
000000e0: 7608 3abe ccbc 8d3d f816 38be 4564 d93d
000000f0: e5ad 993d 8252 7abd 711c 6b3d 484b 67be
00000100: f053 163e d1ee 1bbe b171 cf3d 405d 83bd
00000110: 63e2 46be 525a 6c3d 7eee 3f3e 66f6 ba3d
00000120: 35bb 4dbe c741 1b3e 3493 76bd cadb 083e
00000130: 71c6 0fbe dcc8 473c 360e 3fbe b2ef 313d
0.1614077 -0.16716172 0.18828103 0.16471702 -0.18366615 -0.11983454 -0.011479804 0.18634541
-0.045141578 -0.10955087 0.15968294 0.21110995 0.0114420075 -0.117457904 -0.013167654 -0.15541714
-0.14019041 -0.08627157 0.21545953 0.11057771 0.054748867 0.1540432 -0.05003776 0.11164035
0.025000054 -0.0074244915 -0.088644296 0.16773124 0.11346059 -0.06095045 -0.06742401 0.15951087
0.10765381 -0.06435145 -0.22019722 0.13602622 0.16044228 -0.21279867 -0.009693345 0.22810067
-0.13275681 -0.19190721 0.21871807 0.08642296 -0.13423729 0.20135926 -0.04700858 -0.09570428
0.0005330364 -0.17595595 0.035780165 0.20251518 -0.15669957 -0.09469786 0.00899079 -0.0948187
-0.1816729 0.06920776 -0.17977512 0.10614828 0.07503871 -0.06111384 0.05740017 -0.22587311
0.14680457 -0.1522782 0.10129107 -0.064142704 -0.19422297 0.057703324 0.18743321 0.09129028
-0.20090945 0.15161811 -0.060198978 0.13365093 -0.14040543 0.012193885 -0.18657765 0.043441482

lstm3.bias_hh_l0 f4 [80]
00000000: cde0 0abe 0f42 16be 1c83 56bb 2934 0ebe
00000010: 3103 97bd 6665 043c 4851 3fbe e163 55be
00000020: 03d7 22be 0149 c03d c1f6 e4bd c5b7 993d
00000030: b813 97bd 8778 183e 614c 19be 95a7 91bd
00000040: 38b0 723b 9606 c63d d780 233e c1e5 01bd
00000050: 8b5e 863d ef5f 3ebe 8cfc ab3d a0c6 a13d
00000060: 5892 863d cb18 503e b78c 173e 9a50 593e
00000070: dea6 2fbe 26ae f7bd ed77 02be 1187 483e
00000080: 93e2 eabd ca4d ebbc f347 f1bd 7d59 793d
00000090: d3d3 5bbe 5fb0 21be 534c 45bd 4f69 94bd
000000a0: 4cd1 583e f6a4 15be 9219 903d 4581 3bbe
000000b0: 5a72 523e c67a 4f3e 5b92 4b3e db21 163e
000000c0: 53e5 523d 665a 8abd 171d 5f3e aa13 45bd
000000d0: 04bb 573e ddf7 2b3e 0f5a 1fbd ae09 013c
000000e0: 330e b4bd 6149 43bc d55e d53d 8234 47bd
000000f0: a9b7 54bd 7fab 1f3e cffa b73d b407 59be
00000100: ab3d aa3d 36eb 253e 526e 903d 7a92 9b3d
00000110: 5839 5f3d 9db5 5dbd a29e ff3b a925 113d
00000120: 3bc4 0a3c cd94 abbd d9e9 2e3e 9faf 233e
00000130: 595a 38be 2ad6 28be 2185 19bc 9b3c 52be
-0.13562317 -0.14673637 -0.0032731956 -0.13887085 -0.073736556 0.008080816 -0.1868335 -0.20838882
-0.15902333 0.093889244 -0.11179877 0.075057544 -0.07376808 0.14889728 -0.14970542 -0.07112042
0.0037031304 0.09669225 0.15967117 -0.03171325 0.065610014 -0.18591283 0.08397779 0.07899213
0.065708816 0.20321958 0.14799772 0.21222153 -0.17153499 -0.12093763 -0.1274106 0.19582774
-0.11468997 -0.028723616 -0.11781301 0.06087636 -0.21467523 -0.15789936 -0.04816849 -0.072466485
0.2117359 -0.14613709 0.07036127 -0.18311031 0.20551434 0.20261678 0.19880049 0.14661352
0.051488232 -0.067555234 0.2178844 -0.048114456 0.21067435 0.16793771 -0.038904246 0.007875843
-0.08791771 -0.01191935 0.104184784 -0.04863406 -0.051932964 0.15592764 0.08983385 -0.21194345
0.083125435 0.16203007 0.07052292 0.075962976 0.054498047 -0.054128278 0.007800893 0.035436306
0.008469637 -0.08377991 0.17081393 0.15984963 -0.18003215 -0.16487947 -0.009370119 -0.20530932
