models/lstm_model_v2.pth (torch, 725924 bytes, 17 tensors)

lstm1.weight_ih_l0 f4 [200, 1]
00000000: 17f8 c3bd f3e9 d33b ad95 12bd 6191 d63b
00000010: 88ea c4bd a883 b0bc 254e 08bd dea6 d8bd
00000020: 69b2 8ebd 15f1 3f3d caaf b5bd 1a38 abbd
00000030: cd2c f13d 6ab1 7a3d 38fe 473d 7b70 403d
00000040: 272f bebd 984b af3d 433b b9bd 8bde 15bd
00000050: 2fdf 593d 30bd 87bd de2f c23d cb0d e2bd
00000060: c08e 313d 0607 a9bd 0e66 18bc cb65 8bbd
00000070: 3f5c 7cbd cbf2 21bd 89dc d63d 6b9e 483d
00000080: b97f 0bbe 79b6 d9bd 2335 17be 563f 023e
00000090: 99c3 b23d fc0b f43d c836 d4bd 83a2 cebd
000000a0: 71d9 853d d087 10bc 792b 633d a9d9 f73d
000000b0: c18f 5ebd 6cc8 2dbd fdbc 233d 865a f6bd
000000c0: 552e 673c f8c1 cabd ac16 00be 4468 c0bd
000000d0: 8e1b a13d d094 a1bd e53f e23c cd37 c7bd
000000e0: 8b91 933d 0eba 103e 83f2 eb3a bfd9 a6bd
000000f0: cf48 73bd fa9e 463d 46fc 77bd 2820 a03d
00000100: e237 87bd 5f15 04be 4192 ff3c a555 063e
00000110: 79b2 77bd 6012 b4ba d667 3a3d c404 613c
00000120: 141c 9b3d d077 f23d fcf3 ebbc 0e59 0dbd
00000130: 9431 8cbd 5c2b a7bd 3232 b6bd 3986 013d
00000140: 2209 83bd 2612 d73d 59cb 56bb 7f2d b93d
00000150: 62f0 09be f239 1c3c d15b 723d c7ee 83bd
00000160: 01c9 ec3c 1638 d43d 675b c0bd ced2 93bc
00000170: db28 433d 8069 9abd b5a4 acbd e6c4 b63d
00000180: 2ce7 72bc f2e3 d03d 3a10 0cbe ef65 f13d
00000190: 9010 5f3c cdae 733d 00a4 363d ede3 d3bd
000001a0: fb79 a6bd 2972 e3bc ea6d edbc 9c66 17bd
000001b0: b370 f1bd da69 fdb9 d549 093b 4fbe 863c
000001c0: d721 793d 47ab fd3d dc35 cbbb 2ea5 113e
000001d0: 698b 0b3d 7ea2 10bd 2a32 d13d 2a8a 423d
000001e0: e5c1 e93d 2b3f ebbc a98f c93c d6d6 fcbd
000001f0: 2b1f ae3c 0de7 ed3d 327c e3bc 08f8 f33d
00000200: c6dd 10bd 76ec ea3d 7b66 e4bd ee18 c13d
00000210: 8266 603d 66f7 77bd d2f4 25b8 58b7 0a3e
00000220: d3ca 10bd 3d6e 933d f6cf f8bd 51f3 4dbc
00000230: a68b 0dbe eb1d 9c3d 5859 1dbc c514 a93c
00000240: b980 90bd 0e95 5e3d 754f 033e bbae 893d
00000250: 9868 123d e85c d9bd 82fd dd3d 11f0 88bd
00000260: a96a dfbc 307f b3bd a42b 09be 9fee 2b3c
00000270: 6a81 80bd cea6 e33d da1d 55bc 619a 7cbd
00000280: d584 f73c 3205 14be f86e efbd 5e86 943c
00000290: 315a 66bc b2ee b4bc eb64 48bd b8c9 da3d
000002a0: d899 8e3b 04ec a3bc 2ec4 e8bd 165b 09be
000002b0: d876 013e 96bf 01be a163 7dbd 167c b6bd
000002c0: cc98 b9bd 4715 a9bd f176 c0bd 1683 b1bd
000002d0: d72e 0a3d 2a78 6abc aa18 06be 5bc2 9ebd
000002e0: 1c8a a43c ef7e c1bc caea 84bd b388 02be
000002f0: 96c0 37bd 57dc d1bd 46f9 73bd 8694 68bd
00000300: 8eae 8dbd debc cfbd e317 fabd 50b6 40bd
00000310: fb88 2d3d 1c1c e23c 8faf 33bd 696e a13d
-0.09568804 0.006467098 -0.035787273 0.0065480922 -0.09615046 -0.021547154 -0.03327765 -0.105787024
-0.06967623 0.046860773 -0.0887142 -0.0836031 0.11776123 0.06120435 0.048826426 0.04698227
-0.09286337 0.0855934 -0.090445064 -0.036589187 0.05319136 -0.066278815 0.09481786 -0.11037787
0.043349028 -0.08253293 -0.0093016755 -0.06806525 -0.06161141 -0.039538186 0.104912825 0.048979204
-0.13622941 -0.10630507 -0.14766364 0.12719473 0.087287135 0.11916348 -0.10362011 -0.100895904
0.06535614 -0.008821443 0.05546138 0.12102062 -0.054336313 -0.042427465 0.039975155 -0.12028985
0.0141101675 -0.09900278 -0.12508649 -0.09394887 0.07866584 -0.07889712 0.027618358 -0.0972744
0.072054945 0.14133474 0.0018001351 -0.081470005 -0.059395608 0.048491456 -0.06054332 0.07818633
-0.06602456 -0.12898777 0.031197669 0.13118608 -0.06047294 -0.0013738386 0.045509182 0.013734046
0.07573715 0.11839259 -0.028802864 -0.034508757 -0.06845394 -0.08162567 -0.08896293 0.031622145
-0.06398226 0.105015084 -0.0032775013 0.09041881 -0.13470605 0.0095353 0.059169594 -0.064420275
0.02890444 0.1036226 -0.093924336 -0.018044855 0.047646385 -0.07539654 -0.08429853 0.08924274
-0.0148256235 0.10199727 -0.13678065 0.117870204 0.013614789 0.059492875 0.044589996 -0.10346208
-0.08128735 -0.027764397 -0.028983075 -0.03696309 -0.11789074 -0.00048334786 0.0020948548 0.016448168
0.060823288 0.12386184 -0.006201489 0.14223167 0.0340685 -0.035311215 0.10214646 0.047495045
0.114139356 -0.028716644 0.024604635 -0.12345664 0.021255096 0.11616335 -0.027769182 0.119125426
-0.03536775 0.114708826 -0.11152359 0.09428583 0.05478526 -0.060538672 -3.9567072e-05 0.13546503
-0.03534968 0.07198761 -0.121490404 -0.012570218 -0.13822803 0.07622894 -0.009603821 0.020639786
-0.07055802 0.05434137 0.12823279 0.0672278 0.03574428 -0.106134236 0.108393684 -0.06686414
-0.02727254 -0.087644935 -0.13395554 0.010493903 -0.06274684 0.111158 -0.013007605 -0.061670665
0.030214706 -0.14455107 -0.116910875 0.018130478 -0.014059589 -0.022086475 -0.048924368 0.10683006
0.0043518357 -0.020010002 -0.11365543 -0.13413653 0.12642992 -0.1267074 -0.06186259 -0.08910386
-0.09062347 -0.082560115 -0.09397686 -0.08667581 0.033736076 -0.014310876 -0.13095346 -0.07751914
0.020085387 -0.023620097 -0.06490095 -0.12747459 -0.0448614 -0.102471046 -0.059563898 -0.056782268
-0.06918059 -0.101434454 -0.12211587 -0.047048867 0.042366963 0.027601294 -0.043868598 0.07882387

lstm1.weight_hh_l0 f4 [200, 50]
00000000: 9a22 c0bd e933 2a3d f5ec f7bd 9ce3 60bc
00000010: 5f35 cfbc 2723 35bd 9c79 db3d 6576 4c3c
00000020: fade 33bd a541 5cbc a477 993d b75c 2cbd
00000030: e68a 423d c4c6 e43d 75db fabd 5d67 afbd
00000040: 5f0b f83d 70cb 6bbd 72b8 ddbd 66ac aabd
00000050: fe68 6abd 0f9e 9b3d 04c1 033e ec31 85bc
00000060: 14bc 7d3d 0b67 fcbc acf3 9a3d 9892 bf3d
00000070: c5ac 11be 2632 e23d 957d 123e 7d0a b53d
00000080: 11d0 55bd 4d7a be3d b4e1 8d3d 5503 f7bd
00000090: 50e3 123d 8037 ecbc 0ed7 1b3d 2f86 cd3d
000000a0: 2791 f03c 0d5f 6abd f2c3 efbd d55b e4bc
000000b0: e0ac 883d 95ce b73d 6a4b 133d 6ce3 83bd
000000c0: 7bba ebbd 4e9b e13d 910b d13c 16c9 eabd
000000d0: 805f fe3d ed5b f93d 9783 073d 5c98 ab3b
000000e0: db46 b2bd c584 f4bd f416 63bc 2812 0bbe
000000f0: efc1 043e d974 afbd 7331 ff3d 37bf babd
00000100: e1e6 bcbc a7c9 6e3d f238 c63d fd04 063e
00000110: 0611 483d 59b3 02be b5a3 00be eb19 083e
00000120: 52ab 973a cc5e 8f3d 1c20 6abd 944e feba
00000130: 32b0 9cbd 2d6c 7dbc 994c fcbd 4502 82bd
00000140: 4cf6 8e3c c41d 603d 74eb f33d 61e3 98bd
00000150: 08d3 02bd c3f1 4cbd aff4 763c 1562 4c3d
00000160: 0e69 963d 0c8f dd3d d383 50bd 39d7 c4bd
00000170: d28e e1bd 1321 f2bd 6e28 973d 69d8 993b
00000180: 5d02 8bbc 91ac e53d a116 903d 7977 b13c
00000190: 019f 34bc 1d8b 11be b165 6fbd 9373 e3bb
000001a0: 0888 643d c072 febd 0ba1 553c 43a9 7f3d
000001b0: 42b4 813d 6dc2 5dbd 0190 05bc fb90 dc3d
000001c0: a205 853d 35fa 41bd ce99 173e 4d51 04be
000001d0: 868c d6bd 08b0 4abc cd50 093e fe30 6fbd
000001e0: 581a 613d 4edd a8bd 0316 a1bd 06e6 733d
000001f0: 2c04 a33d 01d6 c73d 4fb9 9b3d f46f c1bd
00000200: 4f02 a9bd 6048 c33d 52e8 29bc 2d45 273b
00000210: 4c36 80bd 627f 2d3d 3731 60bd b007 983d
00000220: f636 df3d 04ee 683d d930 283d 142c d53d
00000230: c1b7 d6bd 5173 8a3d 307b 77bd 6807 41bd
00000240: 41b7 3f3d 2078 86bd 65d5 eabd a606 133d
00000250: 08ef f13d 227c 09be df0c e6bc a59d 8b3c
00000260: 6a36 933b 20e2 8bbc c1ad c83d e15c d9bd
00000270: 2b16 d0bd 2a3e b4bd f2ac e13d eb68 86b8
00000280: 5282 8f3d 73b7 623d 52b5 e63d 4c8f 3a3d
00000290: f6c3 053e c422 f2bd 9244 393d 4ee1 cfbd
000002a0: 61bf f7bd 6010 2e3d 6041 01be d445 de3d
000002b0: 0efa f4bd c526 41bd 1118 a7bd 06eb dbbd
000002c0: dd6f d23d e4b6 d6bd 3fb0 88bd 521a b2bd
000002d0: ab5d 003e 734d d8ba 9fda f8bd a46a 6e3d
000002e0: 77a7 d43d 0535 1ebd 02c1 c63d 1c10 d13d
000002f0: 2dea b23b f8cf 213d 15fe 3e3d d9c3 3cbd
00000300: 0e5c cabc 717b c43b c37c f1bd 5faa afbd
00000310: c8ab c2bd a58e 06bd 49a1 333d d02b 6cbb
00000320: a77f 86bd e65f eb3d bf1b 603b 761a 2d3d
00000330: 08f1 0bbe 24ee 913d 5c99 633d 38e2 97bd
00000340: 3ad3 fb3d 383c 033e 72cd e83d 3764 00bb
00000350: 0765 1d3d 1548 8abd f978 8dbc b701 023e
00000360: 21b0 963d 61ab 16bd e253 683b 385c a83d
00000370: 8365 043e 6cda a8bc c7e0 0b3d e74b be3c
00000380: 88d0 f73c 3e5d b0bd 895c 03be 7c3d 023d
00000390: 43ad db3d 435e dfbd 9b17 b93d 61d4 133d
000003a0: 7982 023e 74ad d13d c6fb 9abc a92e b4ba
000003b0: 0c58 f03c d2e7 10bc 1026 f13c fbb0 56bd
000003c0: d409 87ba d36c bdbc ebdb c53c 3102 cf3d
000003d0: a671 e9bc 7e65 203d 35e1 873d d736 ecbd
000003e0: 21d0 d0bc 2b05 b5bd 90e2 d4bd b82d 0e3e
000003f0: 299e c43c 3306 463c 98fd aa3d 9113 1cbd
-0.093816 0.04155341 -0.12105743 -0.013726141 -0.025294004 -0.044222977 0.107165545 0.012479399
-0.04391382 -0.013443385 0.07493523 -0.042080607 0.047495745 0.11170724 -0.12248889 -0.08564637
0.12111544 -0.05756706 -0.10826196 -0.08333664 -0.057229035 0.07598507 0.12866598 -0.016259156
0.061946943 -0.030810853 0.07566008 0.093541324 -0.14226063 0.11044721 0.14305718 0.08839891
-0.05220038 0.09300671 0.06927815 -0.120611824 0.035861313 -0.028835058 0.03804689 0.10035359
0.029366089 -0.057219554 -0.117072955 -0.02787582 0.06673598 0.08974949 0.035960592 -0.06439862
-0.11510178 0.1101595 0.02551821 -0.11464135 0.12420559 0.121757366 0.03308448 0.0052366685
-0.08704921 -0.11939386 -0.013860453 -0.13581145 0.12964605 -0.08567209 0.124606036 -0.091185026
-0.02305931 0.05829778 0.0967883 0.1308784 0.04884436 -0.12763728 -0.1256245 0.13291137
0.0011571443 0.07000503 -0.057159528 -0.001940208 -0.07650794 -0.015467686 -0.12319297 -0.06348089
0.017451428 0.054715887 0.119101435 -0.07465244 -0.031939536 -0.05003525 0.015072986 0.049898226
0.07344256 0.108183 -0.050906967 -0.09611363 -0.11013569 -0.11822715 0.07380758 0.0046949876
-0.0169689 0.11214555 0.07035566 0.021663414 -0.011024238 -0.14213224 -0.05844659 -0.0069412678
0.055793792 -0.124242306 0.013038884 0.06241728 0.063332096 -0.054140497 -0.008152009 0.1076984
0.06495215 -0.047357757 0.14804766 -0.12921639 -0.104760215 -0.012371071 0.1340973 -0.058396332
0.054956764 -0.082453355 -0.078655265 0.05954554 0.0795978 0.09757615 0.07603704 -0.094451815
-0.082523935 0.09535289 -0.010370331 0.002552341 -0.06260356 0.04235781 -0.054734435 0.07423341
0.10899155 0.056867614 0.04106221 0.10408798 -0.10484267 0.06760276 -0.060420215 -0.047126204
0.046805624 -0.06565881 -0.11466483 0.035895012 0.1181317 -0.13426259 -0.02808231 0.017042944
0.0044925706 -0.017075598 0.09798766 -0.10613418 -0.10160478 -0.08800919 0.11019315 -6.4091604e-05
0.070072785 0.055350732 0.11265053 0.045546815 0.13063034 -0.11823037 0.04523141 -0.10150395
-0.120970495 0.042496085 -0.12622595 0.108531624 -0.11961757 -0.047156114 -0.08158887 -0.107381865
0.102752425 -0.10484102 -0.06674241 -0.086964265 0.12535731 -0.0016502574 -0.12151074 0.05820717
0.10383504 -0.038624782 0.09704782 0.10208151 0.005460045 0.039504975 0.04662903 -0.046085212
-0.024702098 0.0059961607 -0.117913745 -0.085774176 -0.09505421 -0.03285088 0.043854985 -0.0036036856
-0.065673165 0.114929006 0.0034196225 0.042261563 -0.13666165 0.071255 0.055566177 -0.07416195
0.12296148 0.1281594 0.113673106 -0.0019590983 0.038426425 -0.0675203 -0.017269598 0.12695967
0.07357813 -0.036784533 0.0035450389 0.08220714 0.12929349 -0.020611964 0.03414991 0.023229552
0.030250803 -0.086115345 -0.12828268 0.031796917 0.107264064 -0.10906651 0.090377055 0.036091212
0.12745084 0.10238162 -0.018918883 -0.0013746816 0.029338859 -0.008844333 0.029437095 -0.052414875
-0.0010302612 -0.02312318 0.024152717 0.1010784 -0.028496575 0.03915929 0.06634752 -0.11533897
-0.025489869 -0.08838876 -0.10394776 0.13884628 0.024001198 0.012086439 0.083491504 -0.038104597

lstm1.bias_ih_l0 f4 [200]
00000000: fe87 02be ef9c 89bd a393 f2bd db58 c13d
00000010: 99ac f13d 7651 04be 667d 743d c45d 5b3d
00000020: 4110 8a3d 5d6e 03be 2ce0 d53d c7c1 42bd
00000030: bf58 f23d 940c b03c adb3 ca3d 0250 cdbd
00000040: 81f2 0cbe 881b 06be 8adc f43d 081e fbbd
00000050: c547 7bbd ad0a a0bd 57de 103e a6b3 993d
00000060: ed9d 113e 80b1 073e 307f a93c d79c 59bd
00000070: 927f 073d d04b 2cbd 7c0a 7c3c 0f23 043e
00000080: d9af b43d f409 96bd 8ceb 6b3d 5d07 f83d
00000090: 37f2 0f3d 7754 f83b 29ff a2bd f4af 42bd
000000a0: ad42 4e3c 4138 36bd 19f8 3c3d b33f 32bd
000000b0: 2836 ce3d fef6 853d 4f2c 10be 02c8 cebd
000000c0: 0a2c 953d c493 b93c 75d4 eb3d 082a 00be
000000d0: c586 e53d 34c3 b63d 125f 0cbe bb3d f63c
000000e0: cda5 dc3d c696 b2bd 7735 f0bd bcd0 0dbe
000000f0: 9ac3 3f3d 5c07 0f3e 3a30 95bd d164 99bd
00000100: bec6 b1bd 5671 a9bd a75f 88bd 9f45 84bd
00000110: a0f9 f4bd ebdf b93c 226a 333d 0e94 c63d
00000120: f53c 823d 4e45 e3bc f799 d9bd d57e d9bd
00000130: c6d6 023e 4b35 4c3d aadd b1bb 5aff d23d
00000140: f1ea 30bc 81d8 f4bd c420 533c b9f9 09be
00000150: 072d 40bd 1397 d0bc b714 25bc 97cb ddbd
00000160: 7c95 e0bd fdbe 4c3d cee4 8dbd 1112 6d3d
00000170: 3091 8bbd c9c4 1f3d e96e a4bc 9f0f db3c
00000180: 6e07 5b3c b5bd 9cbd d2e7 38bd 0b22 c0bc
00000190: 13ba 41bc ab97 e6bd 343e a2bd 62b6 0abe
000001a0: 3c70 a8bd d578 e3bd 1941 bebd b1f8 f6bd
000001b0: 7f84 ab3d 92d5 bfbd d6b7 773b 876c f8bd
000001c0: 2548 d23d f63b f9bd 7640 debd 7e8b 673d
000001d0: cd09 8c3d ee93 8b3c c065 e6bd 698f 04be
000001e0: 19df cabd fba9 b33d 2350 84bd cc02 ecbd
000001f0: a5c6 a23d 4687 93bd 6666 febd 2deb d2bd
00000200: 7c20 ef3d 8810 4bbd de4f ca3d 3697 aa3d
00000210: ecf4 a2bd 9abe 083d 00c4 e43d 5448 053e
00000220: 2761 013e 86fb 0f3d 3f84 bb3d 25be a8bd
00000230: 4a0a 04bd 2770 5b3b 7b31 5f3d 988f f7bd
00000240: 38d7 053d b59c c83d 1a2a c03b 00ba 023e
00000250: b321 b7bd d778 7abc 544e 81bc 44f5 653d
00000260: 4892 943d 08b7 f13d 6e7d c03d 7780 e6bd
00000270: d956 8b3c 0419 fa3d 64af 95bd dc8f c9bd
00000280: 4a2c 0f3d f639 39bd c8c3 01be 0b08 4d3d
00000290: 1767 b7bc f3c2 b43d 1d7f fabd ba75 b83d
000002a0: ea8d 03be 8291 80bc 35c9 9d3d f33e aabd
000002b0: 50fd 4a3c 3c12 08be 6f26 603d 66a8 fa3d
000002c0: 0b58 263c 8c02 e43c 6e0e bdbc 8dd9 43bc
000002d0: 4269 d2bd 0e36 cabd c91e f7bd 5737 02be
000002e0: 2b82 9bbd de31 953d d535 fbbd a562 873d
000002f0: 719e ba3d a46b 643d 976c e2bd 1eeb b9bc
00000300: 921d 743c aa18 11be c65b 71bd e9ed c9bd
00000310: b39c 28bc a9d2 ba3d 4704 f83d 98ec db3c
-0.1274719 -0.06719386 -0.11844566 0.09440776 0.118004985 -0.129217 0.0596899 0.05355622
0.067413814 -0.12835069 0.10443148 -0.04754808 0.11833333 0.021490373 0.09897552 -0.10025026
-0.13764383 -0.1309644 0.11956127 -0.122615874 -0.06134774 -0.07814536 0.14147316 0.07504968
0.142204 0.13251305 0.02069053 -0.05312809 0.033080645 -0.042064488 0.015383359 0.12903999
0.08822603 -0.07326117 0.057597682 0.121107794 0.035143103 0.0075784284 -0.07958824 -0.047531083
0.012589139 -0.04448724 0.046135042 -0.04351778 0.10068923 0.06541251 -0.14079402 -0.10096742
0.072837904 0.022653468 0.11515132 -0.12516034 0.11207346 0.08923951 -0.13708141 0.030058732
0.107738115 -0.08720164 -0.117289476 -0.13849157 0.0468174 0.13967651 -0.07284589 -0.07489932
-0.08680485 -0.0827357 -0.06658869 -0.06458592 -0.11961675 0.02268978 0.043802388 0.09696208
0.06359283 -0.027743008 -0.106250696 -0.106198944 0.12777242 0.04985551 -0.0054280357 0.10302611
-0.010798202 -0.11955357 0.01288623 -0.13474168 -0.04691794 -0.025462663 -0.01007574 -0.10829847
-0.10966012 0.049986828 -0.06928407 0.057878558 -0.06814802 0.03900603 -0.020072417 0.026740847
0.013368471 -0.07653371 -0.045142956 -0.023453733 -0.011824149 -0.11259397 -0.079220206 -0.13546136
-0.08224532 -0.11107031 -0.0928976 -0.12059153 0.08374881 -0.09366907 0.0037798784 -0.12130075
0.10267667 -0.1216964 -0.10852139 0.056529514 0.06837807 0.017038312 -0.11249876 -0.12945332
-0.09905834 0.087726556 -0.06460597 -0.11523971 0.07948045 -0.07203536 -0.12421875 -0.102987625
0.11676118 -0.049576312 0.09878515 0.083296224 -0.079568714 0.033384897 0.111701965 0.13015872
0.12634717 0.03515198 0.09156083 -0.08239392 -0.032236375 0.0033483596 0.054490548 -0.12087935
0.03267595 0.097955145 0.005864394 0.12766266 -0.089419745 -0.0152875995 -0.01578442 0.056142107
0.072544634 0.118024886 0.09398924 -0.112549715 0.017009186 0.122118026 -0.07308844 -0.09841892
0.034954347 -0.04522129 -0.12672341 0.0500565 -0.022388024 0.08826246 -0.12231276 0.090068296
-0.12847105 -0.015694384 0.07704393 -0.08312788 0.012389496 -0.13288206 0.054724153 0.12239151
0.010152827 0.027833246 -0.02307817 -0.011953724 -0.102739826 -0.09873591 -0.12066419 -0.12716423
-0.07593187 0.07284902 -0.12266127 0.06610612 0.091122515 0.055766717 -0.11055868 -0.02269512
0.014899628 -0.14169565 -0.058925413 -0.09859831 -0.010291266 0.091222115 0.12110191 0.026846215

lstm1.bias_hh_l0 f4 [200]
00000000: 9e42 3ebd 9e11 8f3c 9a94 4bbd a260 443c
00000010: 0f71 053e bac0 6dbc 7cd5 e03d 35d7 763d
00000020: 8e58 a7bd 212b 0ebe 0964 573d 2086 5aba
00000030: f37a c73d f5ef a53d 2d28 4dbc 079a bfbd
00000040: 03fd a53c 7aba f73d 1c3d 0c3e bed4 0fbd
00000050: ab5c 463d 9cf9 283c f70d a73d 788b 003e
00000060: a41e bebd edac dfbd 37f6 8e3d 3317 2c3d
00000070: 9456 11be 7484 b43d f533 efbd e76f c1bc
00000080: aa0d d9bc dc0d a0bd e2e3 cebd b167 d2bd
00000090: 9cf3 33bb 5eb6 dabc 2568 0fbe f38b 803d
000000a0: 6041 acbd 7333 163d 25fa ef3d ceac d9bc
000000b0: d34d 243c fce9 af3d d388 333d ca74 e2bc
000000c0: 8e23 0cbe c365 91bd bf4c 18bd 79ab 5abd
000000d0: 0983 5ebd 91a2 13bc 6c3e 733d 4374 07be
000000e0: d51d efbc 7180 c43d cbbf 363d 8fb0 df3d
000000f0: 3f23 d3bd e208 133e 5b43 df3d bd9d 783d
00000100: 7c5b 9dbd 3132 d6bd e136 ef3d 7841 f73d
00000110: 9041 d83c 7b83 13be 36b4 033d fd51 a2bc
00000120: 73a8 96bd d0da babd a3cb 8ebc 38cc f33d
00000130: 474f 69bd 610e 053e 9c64 863b 0123 133e
00000140: 36c1 52bd b2a3 a2bc 9191 b4bd bd39 10be
00000150: 7476 0abe 42ef a0bd d752 f83d f8b0 083c
00000160: b89d b2bd 5b51 413c 04c9 06be 1c05 e9bd
00000170: 783c 1ebe 2e19 14be cf97 043e c44f 17be
00000180: d05d ae3c a627 6a3c 831e eebc 822c a0bd
00000190: 7981 98bc bfc4 4f3c cb3d c7bd ba0c 1f3c
000001a0: cd1b 93bc b976 e93d 997e ddbd 0070 663d
000001b0: 6f3e 8a3b e8f9 f2bd 6533 883c b927 603d
000001c0: c5a5 273d 59cb 4bbc d7c6 003e 9a0f b03d
000001d0: 2af8 9cbd 3655 a03d 4eba 86bd d9c0 8f3d
000001e0: f7ae 90bd b307 b13b 740e 0cbd 814e b2bd
000001f0: 1bb4 c13c 36cd 643d e99d c1bd f754 833c
00000200: 3553 be3c 6a8b ef3d 9e64 b1bd 89e5 0abd
00000210: ffa3 c3bb d3b0 313d c8c0 09be 982f b23d
00000220: 3ef4 8ebd 87f6 d3bc c1ba 9fbd 60b4 373d
00000230: aa35 0ebe 6f8f 9ebd 4b3b 5a3d 938c bc3d
00000240: 5f74 37bd 7f1a debd 90e2 fb3c 5db3 05be
00000250: 1d5d 81bd 9499 86bd a0bf d7bd ab54 043e
00000260: a6f1 b1bd 128a 62bd 5775 cb3c ce9c 54bd
00000270: 6f4f ab3c a147 b7bd 2501 c83d be39 4f3d
00000280: 884f b9bd 0c8e 01be 6441 d63d f7d7 d33d
00000290: cd07 003e 93a1 9bbd 1d1e 953d 8dca 79bd
000002a0: 4b52 123e c9ae 0abe 0c98 49bd 39f4 593d
000002b0: 8358 0cbe a352 a33d ab2a d9bc 0f0c 973d
000002c0: 4a00 ae3d 1b43 12be 6f2c 8f3d 9b0d e3bd
000002d0: a1d6 9d3c 7c47 013e 3eff e0bd d830 02be
000002e0: 2180 83bd b8e6 46bd 6952 d3bb f291 a8bd
000002f0: 0bff d9bc 0004 5c3d 3fb2 903d 0e2a 9d3d
00000300: 43da 7ebd b5ef e9bd f233 f53d 3b84 debd
00000310: 960c dc3d e9b3 9fbd 2257 d23d 55ec f93d
-0.04645025 0.017464455 -0.049702264 0.01198593 0.1303141 -0.014511282 0.10978219 0.06026383
-0.08171187 -0.1388364 0.052585635 -0.0008336026 0.097402476 0.08102409 -0.012521786 -0.0935555
0.020262247 0.120961145 0.13695186 -0.035114996 0.04842822 0.010313418 0.081569605 0.12553203
-0.09283188 -0.10921655 0.069805555 0.042014312 -0.14193183 0.08814326 -0.11679832 -0.02361293
-0.026495773 -0.078151435 -0.10102059 -0.10273684 -0.0027458435 -0.026698288 -0.14004572 0.06276693
-0.08410907 0.03667016 0.11717633 -0.026571658 0.01002832 0.08589551 0.043831658 -0.02764358
-0.13685438 -0.07099488 -0.037182566 -0.053386185 -0.054324184 -0.009010927 0.059385702 -0.13227944
-0.02918903 0.09594811 0.0446165 0.10922348 -0.10309457 0.14358857 0.10901519 0.060697306
-0.07683465 -0.10458792 0.11680389 0.12073034 0.02639845 -0.14405625 0.032154284 -0.019814486
-0.07356348 -0.091237664 -0.017431086 0.11904186 -0.05696037 0.12993766 0.004101349 0.14368822
-0.05145379 -0.019853447 -0.08816827 -0.14084525 -0.13521749 -0.07858135 0.121251754 0.008342974
-0.08721489 0.011799182 -0.13162619 -0.11377928 -0.15452754 -0.1446273 0.12948535 -0.14776522
0.021284968 0.0142916795 -0.029067283 -0.07820989 -0.018616425 0.012681185 -0.09728583 0.009707624
-0.017957592 0.11399598 -0.10815162 0.056259155 0.0042188684 -0.11864072 0.01662607 0.054725382
0.040929575 -0.012438619 0.12575851 0.08596726 -0.07664521 0.07828753 -0.065785035 0.07019205
-0.07064622 0.005402529 -0.03419347 -0.0870638 0.023645451 0.055859767 -0.09453947 0.016031725
0.023233036 0.11696513 -0.08661769 -0.033910308 -0.0059704776 0.043381523 -0.13452446 0.08700484
-0.06980179 -0.02587439 -0.07799292 0.044849753 -0.13887659 -0.077422015 0.053279202 0.092065
-0.044788714 -0.108448975 0.030747682 -0.13056703 -0.06316588 -0.065722615 -0.105345964 0.12922923
-0.08688669 -0.055307455 0.024836225 -0.051907353 0.0209119 -0.08949209 0.09765843 0.050592177
-0.090483725 -0.12651843 0.10461691 0.103439264 0.12502976 -0.07599177 0.07281134 -0.060984183
0.14289205 -0.13543238 -0.04921727 0.053211424 -0.1370564 0.07974746 -0.026509603 0.07375347
0.08496149 -0.14283411 0.06990897 -0.110865794 0.019267382 0.12624925 -0.109861836 -0.12713945
-0.06420923 -0.048559874 -0.006449033 -0.08230962 -0.026610872 0.053714752 0.07065248 0.07674037
-0.06221987 -0.114226736 0.119727984 -0.10865065 0.10744588 -0.07797987 0.102705255 0.1220328

lstm2.weight_ih_l0 f4 [240, 50]
00000000: 7fb9 7c3b 5854 87bd 7e5e 85bd 83b8 e23b
00000010: 289b bd3c 6e8f 463c 8609 fbbc 9074 adbc
00000020: 0e93 d63b b014 873d 2d79 293c d53f 9fbc
00000030: 3dcc 433c ef63 0c3e d72b 1d3d 6dde fabd
00000040: edba 5e3d 91a4 3abd 3760 e13d 811d 77bb
00000050: 5b83 9abb 92be 183b fa27 5bbd 0847 c4bb
00000060: 7d4d 9d3c 4d15 9b3d b3d6 0ebd 26fe 053e
00000070: fca6 bb3d ec74 a6bd 9566 b13d 1ea0 55bb
00000080: e0aa e83d 9331 6abd b6c1 a8bd f237 08be
00000090: 8f8b e03d eaea b9bd f523 6a3d 316b 383d
000000a0: 5755 33bd 80eb cfbc c96d 03be 7f87 c3bd
000000b0: d231 4c3d 1af1 53bd 2436 0ebe 0e0d d43d
000000c0: 1cb6 96bc 05bd 82bd c630 f03c 288f 363d
000000d0: 015b f2bd 9a4e cfbc 2854 a3bc d332 e9bd
000000e0: 4621 dd3d ae58 ca3c 111b b7bd a9e9 333d
000000f0: f5ac 863d 15df f23d a6d2 5a3d 4752 d9bc
00000100: 9904 a33d 34a4 ad3d 0282 5abd e3f0 793d
00000110: f5ed ad3d c554 f5bd a1f0 59bb 98cf f33d
00000120: 7b23 dfbc 918e 143c 3882 e6ba 7ee3 07be
00000130: 55ec e13c 515b e03d 9529 dcbc 21e0 1a3d
00000140: e28d 993d 0083 213d 9374 a6bd f06f 80bd
00000150: 3d31 a63b a14c df3d 9e18 e23d 8eeb f73d
00000160: bf74 e93d 0b1e 0c3d 70b3 30bd a204 2d3d
00000170: b820 943c d534 e73d a0f4 f73c c510 a2bd
00000180: dc4e 4a3c d855 b93d cb77 b03c 37da adbc
00000190: f755 d4bd 4b42 cfbd 3532 033e a0bf fc3c
000001a0: 5641 933c 99ce 013e 0e39 2cbb 45f8 d8bd
000001b0: 89ac 2f3d 578a 1b3d 3e85 1d3d 9dac e5bd
000001c0: 0589 ea3c 99f4 55bb 5e4c 3abd 4f94 18bd
000001d0: acf7 623d f67b 04be 0d3f 973d 1185 cd3d
000001e0: 7b17 0b3d 0adf 8c3d bb60 7a3c 6729 eabd
000001f0: 1b7c f73c adfb 28bd f713 a7bd dcc7 393d
00000200: 3921 3e3c a0d8 f7bd 581c 303d c92c 08be
00000210: 7022 4a3d e749 09be cff8 f7bd ebe2 9bbd
00000220: 79f3 a6bd c91b e03d 0f07 0c3d 5703 cd3d
00000230: 6df1 94bd 109c c0bd b24a e1bd b9a7 03bd
00000240: a32f 1dbd 9222 4fbd dc18 d93b 9aa5 973d
00000250: e6eb 8b3d 882e e73c 801d fc3d 6707 d1bd
00000260: 4c4f 2cbd b5a8 4f3d 6d2b 9a3c ddb8 d0bd
00000270: 7a7e 073e 84ea 69bd 122b d2bc 597f c5bd
00000280: 19d2 b93d 7a39 1b3d fd4a 01be 8088 713d
00000290: c2b5 cdbd 1835 8fbd b698 8bbd 0e38 b7bd
000002a0: fd05 b23d 99e7 cbbd 34eb 02bd 7fd0 87bc
000002b0: 2f91 f43b 0359 a13d 2b77 b03d a19f bd3d
000002c0: dd5f 083e 5638 273d f5a9 343c 1f1b 91bc
000002d0: 1ac6 e63d bdf1 af3d 1907 8c3d 0b06 6c3c
000002e0: 70c4 253c 87cf bcbd ecdf be3d ea92 a23d
000002f0: e37f b6bd 7f18 393d 4344 e4bc c0fe 143c
00000300: a566 913b fcf9 c0bd 755a e53d fa72 cbbd
00000310: bbe4 f63c a6b7 acbd 78d7 dfbd 6860 083e
00000320: 0be0 c9bc b3ae 733d 2a22 063e f496 8bbc
00000330: 91d7 a23b 6cea ab3c 2616 ac3d 4324 b6bd
00000340: a082 a53c 612b 973d 2504 a8bd 6b95 eb3d
00000350: a8ab 87bd ae11 51bd 40f5 aabd 4993 00be
00000360: ad05 00be 6d8a 20bd 59fd 3a3d 4680 cf3d
00000370: 9921 ff3c 1aec ccbd 76d6 bf3c 350d b33d
00000380: 1b21 133d 950b efbd 2f5e 933d 1ee1 01bd
00000390: 8557 213d 3997 a03d 50bf d2bc 4dbc a63d
000003a0: 6093 de3d 6477 be3d dc87 6d3b 7ecc febd
000003b0: 3fb8 a43a ad0d 8c3d b56f 573d 3254 033d
000003c0: 7183 fb3c 13ec ca3d 65eb 04bd a0f8 283d
000003d0: 61b8 e3bd 9879 be3b 2134 09bd 7c22 c13a
000003e0: 196d eb3d 16de 69bd d17c bfbd e88f b6bc
000003f0: 1374 013d 95ae 813b d5b0 853d 55ed ef3c
0.0038562713 -0.06607884 -0.065121636 0.006918968 0.023145273 0.012119157 -0.03064419 -0.021173745
0.006548292 0.06595743 0.010343832 -0.019439617 0.01195055 0.13709997 0.038371887 -0.122494556
0.054377485 -0.0455671 0.1100468 -0.0037706795 -0.004715366 0.0023306948 -0.05350492 -0.005989913
0.019201988 0.07572422 -0.034872722 0.13085231 0.09162709 -0.0812777 0.08662144 -0.0032596658
0.11360717 -0.057176184 -0.082400724 -0.13302591 0.10964119 -0.090780094 0.057163198 0.0450241
-0.04378256 -0.02538085 -0.12834848 -0.09547328 0.0498522 -0.051743604 -0.1388784 0.103540525
-0.018397383 -0.06383709 0.029320132 0.04457012 -0.11833764 -0.025306035 -0.01993759 -0.11386647
0.10797362 0.024700489 -0.089407094 0.043924008 0.06575958 0.11858956 0.053423546 -0.02652849
0.07959861 0.08478585 -0.05334664 0.061020743 0.08492652 -0.11979059 -0.0033254998 0.1190483
-0.027238598 0.009067194 -0.0017586416 -0.13270375 0.027578512 0.10954917 -0.026875297 0.037811402
0.07497765 0.039431572 -0.081277035 -0.062713504 0.0050717876 0.10903288 0.110398516 0.12105475
0.11399221 0.03420834 -0.043139875 0.042240746 0.018082008 0.11289374 0.030268013 -0.07913355
0.012347903 0.090495765 0.021541497 -0.021222217 -0.10367959 -0.10120066 0.12812121 0.030853093
0.01797549 0.12676467 -0.0026279124 -0.10594229 0.04288915 0.037973728 0.038457148 -0.11214564
0.02862979 -0.0032647012 -0.045482986 -0.037250813 0.05541198 -0.12937912 0.07385073 0.10035146
0.03395794 0.06878479 0.015281851 -0.11433678 0.030210545 -0.04125564 -0.08158105 0.045356616
0.011604601 -0.12101865 0.04299578 -0.13298334 0.04934925 -0.13407098 -0.12108003 -0.076116405
-0.081519075 0.109427996 0.03418642 0.10010403 -0.07272611 -0.094047666 -0.11000575 -0.032142375
-0.038375508 -0.05057008 0.006625278 0.07404633 0.068321034 0.02822043 0.12310314 -0.1020649
-0.04206781 0.050698 0.018819535 -0.1019151 0.1323184 -0.057108417 -0.025655303 -0.0964343
0.09073276 0.03789661 -0.12626262 0.058968067 -0.10044433 -0.06992549 -0.06816237 -0.089462385
0.086925484 -0.09956283 -0.03196259 -0.01657891 0.0074635963 0.07878306 0.086164795 0.092589624
0.13317819 0.04082521 0.011026849 -0.017713128 0.112682536 0.0859103 0.06837291 0.014405738
0.010117635 -0.0921927 0.093200535 0.07938178 -0.08911111 0.045189377 -0.027864581 0.00909394
0.004437285 -0.09422681 0.11198894 -0.099340394 0.030138364 -0.08433466 -0.10929769 0.13318026
-0.024642965 0.059492778 0.1309897 -0.017039753 0.004969545 0.020985804 0.08402662 -0.08893635
0.020203888 0.07381321 -0.082039155 0.115031086 -0.06624538 -0.05104225 -0.08347559 -0.12556185
-0.12502165 -0.039194513 0.045651767 0.10131888 0.03114395 -0.1000597 0.023417693 0.087427534
0.035920244 -0.11672131 0.071956985 -0.03170883 0.039390106 0.078413434 -0.02572599 0.08141384
0.10867953 0.09300116 0.0036244309 -0.124413475 0.0012567117 0.06838546 0.052596767 0.032062717
0.030702325 0.09908309 -0.032451052 0.041252732 -0.11119152 0.005812835 -0.03349698 0.0014735009
0.11495418 -0.057096563 -0.09349979 -0.022285417 0.031604838 0.0039575794 0.06527869 0.029287973

lstm2.weight_hh_l0 f4 [240, 60]
00000000: afaf 9e3d 03f4 fb3d 4e65 233d edbb d6bd
00000010: 9f40 a8bd a8d5 373c f576 f9bd 8def 58bb
00000020: 5fe5 743c 39fe 87bc 01d4 dc3d d809 883d
00000030: 0905 c2bc 731b 13bd d124 863b 08ff a03b
00000040: 2221 84bd 3b66 e83d 1dae 4a3c 5fd9 d23c
00000050: ab3b e9bd 49dd 06bd 23da 15bd 1386 063d
00000060: f5fe c9bd c42e 0f3d ae6c 22bd 3d52 babd
00000070: db16 423d 6244 03bd 1010 663d 1233 4b3d
00000080: 327d f4bd 6b53 0c3b b684 cb3d 16c3 79bc
00000090: 0970 c83c 2950 0d3e 67ca 32bd 2f8b a3bc
000000a0: 4f97 c13d 2156 45bd 11fb a33d bd15 2cbd
000000b0: 6fa9 76bd 0c94 b13d 5192 ad3d cae6 ae3d
000000c0: 199f 8bbb 1811 de3d e880 6abd afbb de3d
000000d0: 03ba 0dbe e8bf 9a3d d097 2ebd 3bbd c83d
000000e0: 2d2d 053e de47 8fbd bc2d 943c 9433 2fbd
000000f0: 2779 213d 177f c83d d18c 59bd 1077 ea3a
00000100: 250b 84bd 50e2 9fbd 84c0 71bd 4cfe dabd
00000110: fcaa b43c 50e0 c43d 8728 903d ae28 e53d
00000120: cb7a b13c b744 543d bf2b 753d d9d0 e33d
00000130: ea53 2b3d 0736 f0bc 187e b9bb 96f1 d13d
00000140: 786c 1cbd 1df5 97bd ff4c ca3c 71cc 39bd
00000150: 8f96 b0bb 2142 0a3c 387b 893d 58fb 14bd
00000160: c62e b13d 7858 eebb 91b1 583c 1ccb 573d
00000170: 8379 e9bd 51b4 80bc 9819 02bd e5aa 62bd
00000180: 5173 d23d 88d1 b4bd b32f debd 8a5f da3d
00000190: 2d2f 84bd d570 4e3d 6877 d83c b186 663d
000001a0: ab9f 9fbd 0a89 a03d b2c2 97bd fb70 f03d
000001b0: 8b44 42bd 7c6b a53d 6740 c2bd 0cd7 9abd
000001c0: 0f5d f03c 36e6 ff3d 48ed 62bd d007 d73c
000001d0: 3587 65bd 6952 52bd 8e6b 043e 793f 5cbc
000001e0: 6a3d ccbd 5ce6 5abd ae44 dfbc 8da3 c2bd
000001f0: 474c eb3c 005f febd 49d9 1cbd 566b bfbd
00000200: 9b71 db3d 6b2a f5ba 1b1c 123d d74a b13c
00000210: f793 d7bd 99ab b73d 7bec edbc 8f55 91bd
00000220: 1289 b73d 5425 a63d 445b 39bd ed21 8cbb
00000230: 7331 8a3d fa97 8abd 2695 fcbd feaf 9fbd
00000240: 3ead c1bc 43b6 bf3c fca3 7abd 6674 3b3d
00000250: 079a 833d 45c1 6e3d bbbb 073e 419d 63bd
00000260: 4bc0 d8bc e7c4 e53c ffab ec3d 5cb4 ea3d
00000270: 8613 a93c eb01 e63c ab65 b13d 2ab0 cfbd
00000280: e1aa c5bd fdb9 afbd 2bf0 c83b b596 8d3c
00000290: 8a3e 873d ee27 573d 3e8b ea3c 85ee 043e
000002a0: dd01 6dbd 7957 d53d e45f d83c 3b4f a1bb
000002b0: 6bb4 a4bd b1cc 353c dc1a e6bc 75c0 cf3d
000002c0: 6e99 41bc c601 afbc b5a5 0bbd 5ec7 2c3d
000002d0: 819a d83d 1cbd fd3d 5da0 05bc 4613 6f3d
000002e0: 976d ff3d 8b19 4abd 7b7c a83d 3a4c fbbd
000002f0: 2ac1 cb3b 8316 d73d 665e 92bd bc12 adbd
00000300: a9d1 0ebd 7e31 1fbd 7cd7 ccbd efdf eb3c
00000310: 03d8 ac3d 8646 0cbb 1667 b1bd 46e2 a1bd
00000320: 57ea e13c 551c ea3d 0433 9e3c f93c 9abd
00000330: 6870 16bd 61d4 c83d 80b4 e23d 5ec3 dc3c
00000340: 3cf0 b23d 8956 9c3c 151f bdbd 3827 44bb
00000350: dfad 653c 988c 033e fca1 1b3d e812 36bd
00000360: 6b83 5a3c c77a 8a3d e3c8 b5bd 7698 39bd
00000370: 7616 753d 570c 463d a325 b8bc a1f1 b13d
00000380: 408a b13d 20d1 d7bd 5e3c be3d 8d7e d73d
00000390: 9ece 02bc 1ad0 e2ba 6522 c8bd f81f ef3b
000003a0: c064 3fbd 0b7b a43c 317f b33c b1e9 cdbd
000003b0: f335 dcbd f113 a63d f01a 92bd f1ca 733d
000003c0: fcd5 6b3d e157 debd ef08 b63d 1200 9cbd
000003d0: a6b3 ffbd 60ce c83d bfb4 7b3c 000b 1ebd
000003e0: 1cd4 f3bd 9493 d0bd 671a 313c caac d83c
000003f0: 7c9c cc3d 08d8 093d 8208 8bbd 76c2 c6bd
0.07748353 0.12302401 0.039891534 -0.10485063 -0.082154505 0.011220373 -0.121808924 -0.0033101768
0.014947264 -0.016600715 0.10782624 0.066425025 -0.023684042 -0.03591485 0.0040937443 0.0049132146
-0.06451632 0.11347624 0.012370613 0.025738416 -0.11388334 -0.032925878 -0.036584985 0.032842707
-0.09863082 0.03495671 -0.039654426 -0.09097717 0.047385078 -0.032047637 0.056167662 0.04960925
-0.119379416 0.0021412026 0.09937422 -0.015244266 0.024467485 0.1380011 -0.043650057 -0.019963829
0.09452688 -0.048177842 0.080068715 -0.04201292 -0.06022018 0.08670816 0.08475173 0.08540113
-0.0042609093 0.10843104 -0.05725184 0.108756416 -0.13840489 0.075561345 -0.04262525 0.09801718
0.13005514 -0.069961295 0.018088214 -0.042773798 0.03942218 0.097898655 -0.05311281 0.0017888267
-0.06447438 -0.078068376 -0.059021488 -0.106930345 0.022054188 0.09613097 0.0703898 0.111894
0.021664998 0.051823344 0.059856173 0.11123819 0.041828074 -0.029322637 -0.0056607835 0.10251157
-0.03818938 -0.074197985 0.024694918 -0.045360986 -0.0053890417 0.008438618 0.06712955 -0.036372513
0.086514995 -0.00727373 0.013225929 0.052683935 -0.1140013 -0.015710982 -0.03176269 -0.05533876
0.10275901 -0.088290274 -0.10848942 0.10662754 -0.064543106 0.050400574 0.026424125 0.056280795
-0.07794126 0.07838638 -0.07410182 0.11740299 -0.04742865 0.08077142 -0.0948494 -0.07560548
0.029341249 0.12495081 -0.05540207 0.026248842 -0.056037147 -0.051348124 0.12931654 -0.013442867
-0.09972651 -0.053442344 -0.027254429 -0.09503851 0.028722895 -0.124204636 -0.038293157 -0.093466446
0.10715028 -0.0018704658 0.035671335 0.021642132 -0.10526269 0.089682765 -0.029043427 -0.07096397
0.08961691 0.081125885 -0.045253053 -0.004276505 0.06747713 -0.067672685 -0.12333135 -0.0779724
-0.023642179 0.023402339 -0.061191544 0.045765303 0.06425863 0.058289785 0.13255207 -0.05556989
-0.02645888 0.028047992 0.11556243 0.11460182 0.020639192 0.028077086 0.0866197 -0.101410225
-0.09651733 -0.08580396 0.006132146 0.017283777 0.06603725 0.052528314 0.028630849 0.12981613
-0.057863105 0.10417075 0.026412912 -0.004922775 -0.080422245 0.0110961655 -0.02808898 0.1014413
-0.011816366 -0.02136315 -0.034093577 0.04218232 0.10576344 0.123895854 -0.008155909 0.05836799
0.124720745 -0.049340766 0.08226868 -0.122703984 0.0062180953 0.10502341 -0.07146911 -0.08450839
-0.034867916 -0.03886556 -0.10002038 0.028793303 0.084396385 -0.002140434 -0.0866224 -0.07904486
0.027577562 0.11431185 0.019311436 -0.07531161 -0.036728293 0.09806133 0.11069584 0.026948627
0.08737227 0.019084232 -0.09234444 -0.0029930603 0.014018505 0.12846601 0.037996277 -0.044451624
0.013336997 0.06761699 -0.08876207 -0.045311414 0.059835874 0.048351612 -0.022478884 0.08688665
0.08668947 -0.10537934 0.09288858 0.105221845 -0.007983832 -0.0017304451 -0.09772185 0.007297512
-0.046726942 0.020078203 0.021911236 -0.10054339 -0.107524775 0.08109272 -0.07134044 0.059519712
0.05757712 -0.10856605 0.08888423 -0.07617201 -0.12485437 0.09804988 0.015362917 -0.03858471
-0.11905691 -0.10184398 0.010809517 0.02644958 0.099907845 0.03365329 -0.06788732 -0.09705059

lstm2.bias_ih_l0 f4 [240]
00000000: 89fc d5bd d135 d3bd 2fd6 343d b3c2 ea3d
00000010: 46ee ebbd c5eb e6bd 567a 4dbd 196e ea3d
00000020: 9a28 a23c 9324 143d 57d3 593d 370a c0bc
00000030: 7cd5 d83a d24e 7e3d e26d 0eb9 9032 833d
00000040: d7b6 1e3d e62a 0b3c b51f f5bd 1743 a0bd
00000050: ecbd cbbd 6a93 a63d 22f9 5f3d f7ed 78bd
00000060: 4987 8c3d 70ab d8bd 1923 7fbd cd16 d1bd
00000070: 39fd 26bd d6db 283c 82e2 573d 06c5 a5bd
00000080: 7ab8 853d fee3 9f3d 16f0 673d fd94 3abd
00000090: d341 09be e410 c6bd 92df 4cbc ee20 92bd
000000a0: 76b3 22bd b39e 013e ab8e d53c 531c d63d
000000b0: 252e 91bd 1b40 f0bc 6b87 a5bd ebe4 c73d
000000c0: 3a74 d0bd cadf 303d 408b 903d 3497 fa3c
000000d0: a3e7 493c ca63 35bd b8fc 13bd 564c ac3d
000000e0: 719a a03d 20d3 793d 5fa5 21bd e72c 83bd
000000f0: e724 e43c bcc5 803b 1afd b73d bbbc 4fbd
00000100: ae86 0cbe ed3c c0bd c899 07be a2e0 94bc
00000110: 8069 883d e67d ecbc 60e2 5d3d e5e0 efbc
00000120: 74c6 c03b c6eb 0cbe 4100 8c3d 0017 40bb
00000130: e79f 8b3d a46a 8ebc 83b0 00bd 6276 0b3a
00000140: 2364 933c c1da 9d3d 57d7 e8bd 813b 04be
00000150: f834 9bbd b6c8 61bd 509a 2bbd 2f2b b93d
00000160: 8342 973d c8ea ec3d 9d41 5bba 2ab5 a5bd
00000170: 04ba ee3d ee28 6b3d 20e7 76bc d0a5 bdbd
00000180: 163b b33d 66aa 41bd 1938 c73c 9adb dcbd
00000190: 459b 913d 3cf7 d4bd 64b2 2fbd 86f1 af3c
000001a0: d334 b43d 6747 093d e756 e9bd 3850 6d3d
000001b0: 165d efbd 9fa3 a73d 4dae 923d 6648 943d
000001c0: ced2 6f3c abcc 0cbe db10 f5bd 007a adbd
000001d0: f236 fabc 78f9 7ebd 213a 4abd 727b 8dbd
000001e0: 4ecf a0bd 48d2 01be 2ed3 b73d 7a57 81bc
000001f0: c4ed b43d 8f21 123d 12ae a6bd 8823 ca3d
00000200: 0ef0 a23d cb59 3fbd 0c37 cbbb 3140 6f3d
00000210: 4bd3 d2bd dde4 e4bc bb4d 2c3d 7aa6 243d
00000220: 239b abbd 059b 38ba 511e 283b b2e5 cb3d
00000230: ba6d d53d 94ce c53d c902 36bd cbea 90bd
00000240: 895d 0ebb 20de bdbc 7dcf cc3d 9b7b 3f3d
00000250: cdbe c9bd e07a babd ed29 f8bd 909e 8a3d
00000260: 1e73 30bd ca50 37bd d1eb 0a3d bbc6 dfbd
00000270: fc27 7cbd 2888 13bd 5770 80bd aaf9 89bd
00000280: a613 b0bd 7e99 423d b51e 98bd f2a3 b63d
00000290: 2874 4e3d f5e4 ff3c 3e2f 1b3d 3653 733c
000002a0: fbe1 903d 14b9 db3d 574c 673d 82f3 033c
000002b0: eb86 d9bd d6fa c1bc 08b4 02be 7b91 913c
000002c0: edd1 9e3c bb28 d9bb c739 b73d aa68 bdbd
000002d0: 2a4a 57bd 45be b43d f1e3 e83d e6c0 343d
000002e0: 7630 0cbe 6905 3ebd 1e3f d63c 3f63 03be
000002f0: b75d 923d c449 15bd c0c4 aebd a7d2 ce3d
00000300: 7c4b 9abd 08f5 e33d 8a71 703d 614d 08bd
00000310: da15 33bb 1d7e 0bbe 7d66 733d 74f5 803d
00000320: a916 53bd c5e8 15bd abb2 dd3b 4476 a83b
00000330: 66a3 1bbd a8a9 c13d d332 3539 5dbf 6dbc
00000340: 83a1 6f3d e83c eabd a321 463d 0644 cc3d
00000350: af16 d6bd 797f 973c 3ed7 953d f094 d03d
00000360: e34e 803d a718 82bb c42f ff3c 6646 98bd
00000370: 42fc ba3d 1379 6dbd 263c bdbd 156e 933d
00000380: 4aee 72bd 0bc1 51bd f44c 00be 1fd9 383d
00000390: df5f 8f3d 131c 02be 86be b9ba 75e6 c13d
000003a0: 73bf aebb 1122 46bb b32a a9bd 3f38 c7bd
000003b0: a015 bf3b 208d ee3d 133f 6a3d 0b67 88bc
-0.10448558 -0.10312999 0.044149574 0.11462917 -0.115200564 -0.11275438 -0.050165497 0.11446781
0.019794751 0.036167692 0.053180065 -0.02344237 0.0016543115 0.062086888 -0.0001358311 0.064061284
0.03874859 0.0084941145 -0.11968938 -0.07825296 -0.09948334 0.08133586 0.05468095 -0.060773816
0.06861741 -0.10579574 -0.06228933 -0.10209427 -0.040768836 0.010306319 0.05270625 -0.0809422
0.06529327 0.07807158 0.05662545 -0.045552243 -0.13404016 -0.096711904 -0.012504475 -0.07135187
-0.03972193 0.12658195 0.026069006 0.10454621 -0.070888795 -0.029327443 -0.080824696 0.097604595
-0.101784185 0.043182172 0.0705781 0.030589677 0.012323293 -0.04428462 -0.036129683 0.084129974
0.07841957 0.06099236 -0.03946435 -0.06405049 0.027849628 0.003929822 0.08983822 -0.050717097
-0.13723251 -0.09386621 -0.13242257 -0.01817352 0.066607475 -0.028868627 0.054170966 -0.029282043
0.0058830325 -0.13761815 0.06835986 -0.0029310584 0.06817608 -0.017384835 -0.031418335 0.00053200696
0.017992085 0.077077396 -0.11369198 -0.12913324 -0.07578462 -0.055123053 -0.04189521 0.0904144
0.07385733 0.115682185 -0.0008363964 -0.08091195 0.116565734 0.05741208 -0.015069753 -0.09260142
0.08751504 -0.047281645 0.024318742 -0.10784073 0.071096934 -0.10398719 -0.042894736 0.021477472
0.08799138 0.03351536 -0.113935284 0.05793783 -0.116876766 0.08185505 0.071621515 0.072403714
0.014637662 -0.1374995 -0.119661056 -0.08470535 -0.030543778 -0.06224963 -0.049371842 -0.06908311
-0.0785204 -0.12677872 0.08975826 -0.015788782 0.08834413 0.035676535 -0.0813867 0.09870058
0.07955943 -0.046716493 -0.0062016305 0.058410827 -0.10294207 -0.027941162 0.042066317 0.040197827
-0.08379199 -0.00070421427 0.0025652836 0.0995592 0.10421319 0.09658542 -0.04443625 -0.07076033
-0.0021723232 -0.023177207 0.10000513 0.04674874 -0.098508455 -0.09105468 -0.12117372 0.06768525
-0.043078534 -0.04475478 0.0339163 -0.10926577 -0.06156157 -0.03601852 -0.06271427 -0.06737073
-0.08597498 0.047509663 -0.07427732 0.08917989 0.050403744 0.031237105 0.03788685 0.014851382
0.07074352 0.1072866 0.056469288 0.008053662 -0.10621437 -0.023679178 -0.12763989 0.017769566
0.01938721 -0.00662717 0.08946567 -0.09248479 -0.052560963 0.088253535 0.113716014 0.044129275
-0.13690361 -0.04639188 0.026153143 -0.12830828 0.07146781 -0.0364473 -0.08533621 0.100987725
-0.07533929 0.111307204 0.05870203 -0.03327692 -0.0027326257 -0.13622327 0.059423912 0.062968165
-0.051535282 -0.03659894 0.0067656836 0.0051410515 -0.037997626 0.094561875 0.00017280439 -0.014510957
0.05850364 -0.11437398 0.048371922 0.09973912 -0.10453545 0.0184934 0.07316445 0.101846576
0.062650464 -0.003970224 0.031150706 -0.074353024 0.091301456 -0.057976793 -0.09239988 0.07198731
-0.05930928 -0.05120949 -0.12529355 0.045128938 0.07000708 -0.12706022 -0.001417116 0.09467784
-0.005332881 -0.0030232708 -0.08260097 -0.09727525 0.0058314353 0.11648011 0.05718906 -0.016650697

lstm2.bias_hh_l0 f4 [240]
00000000: 49ea 8c3d 8799 ecbc 1237 e6bc c26c 1c3d
00000010: 3c26 45bd bda3 e0bd 3071 45bc cbe0 c33d
00000020: 57b7 613d d4ad 9e3d f382 5abc 73e2 af3d
00000030: 7329 8fbd fffe 233c d424 7d3d faaa 93bd
00000040: 9258 613d 909b d93d 6b21 b0bd 8487 0dbd
00000050: 0f29 87bd f70a 01bd 3d5d c9bd 7616 1c3d
00000060: e8f9 8bbd 0c61 c63d ce6e 00bd d7c7 b83d
00000070: faed a5bc 78de c2bd 8bd2 e93c 0b11 3c3b
00000080: f263 a93d a5ec a43d 7b92 cc3d 2195 453d
00000090: 0501 e53d aaf5 8abd b2b1 0dbe 28b6 85bd
000000a0: 2c2f 20bd 4739 8dbd 31b5 973d 102e 9e3c
000000b0: 1976 033e f3dd 903d 2e4a 0ebe 59eb c33d
000000c0: d27d 4dbd 812d 763c cb21 45bc 9a94 fabc
000000d0: caa2 2f3d f8cd a73d 7e05 c8bd a8ed 97bd
000000e0: 1fed bf3d 1c91 a03d 51d1 96bd 0804 e2bc
000000f0: 1072 f4bd f427 a83d 8246 bcbd 3867 94bd
00000100: cd0c b03a d393 d13c 976d a03d 0196 863d
00000110: af60 abbd 3831 7cbd 00d2 113d 0cc9 45bd
00000120: b18f 053b 22b9 85bb 03ee 02be 9274 4f3d
00000130: ad8e cebc 8236 823d ad7f ff3d 5d00 c0bd
00000140: 4a17 bb3d a565 9bbd 7a07 ddbc c8ce f4bd
00000150: dc79 313d c42d b2bd 3378 073c 534b 993d
00000160: 683e 9ebd 838c f83d 5b31 fe3d c035 cc3d
00000170: a84e 203d 34d9 adbd d0ef 5ebc da26 3cbd
00000180: b788 6cbd c62d eabc 28bc 03be 207b f9bd
00000190: 4809 d5bc 758a 033e 8e3e c63d cca8 ab3d
000001a0: ede2 16bc 576c 27bb 95aa a6bd ab1f 1dbc
000001b0: 16e6 613d 5783 333d f0db dabd 02a5 b7bb
000001c0: 7eaf 1bbc 395a c7bd 08ff f6bd 797d 48bc
000001d0: 4783 733d 2d8a b4bd 15eb d83d 2eb3 c9bc
000001e0: 95ce e33a a089 833d 1e37 e3bd b558 b93c
000001f0: a0d0 43bd a0c1 2fbc 6ea7 923d 496d ccbd
00000200: 2e1d c33d 532c 2e3d a261 23bd 8c7c d63c
00000210: 339a e03c 7e63 a33d fd13 71bd b274 253d
00000220: 3f2d b4bd 3ce6 5ebd 31af bb3d ae6c eb3d
00000230: a168 7cbd ff93 be3c f117 bf3d ba7b 8ebd
00000240: 8ef6 1fbd a004 de3c 05dc 7abd 5af8 383d
00000250: 6fa7 6ebc 0581 f9bd 016f adbd f057 68bc
00000260: 5428 0f3d 5009 7a3d 5c11 ebbd 236f 6f3d
00000270: 7d00 d23c 1e94 60bd 0fd8 8dbd 2f65 afbc
00000280: faf7 5e3c 2bad 4cbd 4951 a4bd 7df5 483d
00000290: 3566 d0bd 3bc1 df3d d89b 9b3c 7a10 7bbc
000002a0: 7181 de3d a6d4 36bd 970f b63d 18bb afbd
000002b0: b26d 593d 53be 173d 4528 893d 4429 f9bd
000002c0: 58ea d8bd 8b8f 07be ef37 9fbd 381f f13d
000002d0: 50da 273d f8af 833d ea5a 3cbc 6634 b6bd
000002e0: 5748 7a3c a1db dcbd bd78 d3bd 026b c93d
000002f0: 9c1f c83c 8293 c03d 9d30 80bd 8e4b d33d
00000300: 6f0b 063d d465 acbb b03d c4bd 6d3c 5c3d
00000310: e2c0 02be 9b21 c83c a843 7cbd 7371 63bc
00000320: 6d48 c2bc 6d9b 993d e220 283d a9b4 513d
00000330: a260 e33d f83c d7bd ac94 b5bd 67d6 f93d
00000340: dc22 f93d f837 b33d ad02 d13d c41b c93d
00000350: 0d5b b23d d595 36bd f433 eb3d df88 0c3b
00000360: ddf2 a53d fc63 9e3d fac0 9d3d 6b1b 343d
00000370: 0634 36bd 0f6f d43d db68 afbd 56a5 003e
00000380: 7d78 f43d c6c2 b5bd 2335 ebbc b3e7 de3d
00000390: ceab 85bc 6a5b 62bd 9676 ca3d 7571 23bc
000003a0: c3a4 c7bd f508 3b3d af43 84bd e2fa eebd
000003b0: e74f 11bd 5c87 ca3d fe0d bb3d 9804 8e3d
0.06880624 -0.028881801 -0.028102431 0.038189657 -0.048132166 -0.109687306 -0.012050912 0.0956436
0.055106487 0.07747999 -0.013336885 0.08588114 -0.06990328 0.010009526 0.0618027 -0.072103456
0.055016108 0.10625374 -0.08600124 -0.034553066 -0.06599628 -0.031504598 -0.09832237 0.038107358
-0.06834775 0.09686479 -0.03135567 0.090224914 -0.020255078 -0.09515089 0.028542778 0.0028696682
0.08271016 0.08052949 0.099888764 0.048237924 0.11181835 -0.06785138 -0.13837317 -0.06528884
-0.039107487 -0.068956904 0.074076064 0.019309074 0.1283802 0.070735835 -0.13895485 0.095663734
-0.05016882 0.015025497 -0.012031983 -0.030588437 0.042879857 0.08193582 -0.097666726 -0.07418376
0.09371399 0.078401774 -0.07364143 -0.027589813 -0.11935818 0.082107455 -0.09193136 -0.0724625
0.0013431549 0.025583183 0.078334026 0.0657158 -0.0836805 -0.061570376 0.035600662 -0.048287436
0.0020379836 -0.0040809074 -0.12786107 0.05064828 -0.025214517 0.06358053 0.12475524 -0.09375069
0.091353014 -0.075877465 -0.026981104 -0.11953503 0.043329105 -0.08700135 0.008268404 0.0748507
-0.07726747 0.121361755 0.124117576 0.099711895 0.039137512 -0.08488694 -0.01360698 -0.04593549
-0.05774757 -0.02858628 -0.12864745 -0.12181687 -0.026005402 0.12845786 0.096799 0.08381805
-0.009209377 -0.0025546753 -0.08138005 -0.00959007 0.055151068 0.043826427 -0.10686481 -0.0056043873
-0.00950229 -0.097340055 -0.12060362 -0.012236946 0.059451368 -0.088154174 0.10591713 -0.024621572
0.0017380292 0.06422734 -0.11094497 0.022625307 -0.047806382 -0.010727316 0.07160841 -0.09981782
0.0952705 0.04252274 -0.03988803 0.026182435 0.027417278 0.07977961 -0.058856953 0.040394492
-0.087976925 -0.054418787 0.091642745 0.114953384 -0.06162322 0.02326393 0.09330738 -0.06957193
-0.039053492 0.027101815 -0.061244983 0.04515872 -0.0145662865 -0.12182812 -0.08468438 -0.014181122
0.03495057 0.061044037 -0.114779204 0.058455598 0.025634998 -0.054828756 -0.069259755 -0.021410553
0.013608927 -0.049969833 -0.080233164 0.04906224 -0.101757444 0.10925528 0.01899521 -0.015323753
0.10864533 -0.04463639 0.08889692 -0.08580607 0.05308313 0.03704674 0.06697134 -0.12166074
-0.105915725 -0.13238351 -0.0777434 0.11773533 0.040979683 0.06430048 -0.011496285 -0.08896713
0.015276036 -0.107840784 -0.103257634 0.09834863 0.024429135 0.09403135 -0.06259272 0.10317145
0.032725748 -0.0052611623 -0.095820785 0.053768564 -0.12768891 0.024430087 -0.06158796 -0.013882029
-0.023716176 0.07500348 0.041046984 0.05119768 0.111024156 -0.10509676 -0.088662475 0.12199097
0.12164852 0.087509096 0.102055885 0.09819749 0.08708773 -0.044576485 0.11484519 0.0021443886
0.08102963 0.07733914 0.07702823 0.04397146 -0.044483207 0.10372745 -0.085649215 0.1256307
0.11937044 -0.08875041 -0.028711861 0.10884037 -0.016317274 -0.05526296 0.098859 -0.009975781
-0.09748223 0.04566284 -0.06458222 -0.11668946 -0.03547659 0.09889099 0.09133528 0.0693447
